ddpg_actor_B.pth (torch_old, 579665 bytes, 6 tensors)

fc1.weight f4 [512, 24]
00000000: d2a6 08bd 9ab2 683d 183b 903b bd99 9abc
00000010: fecc 03be 6ff8 93bc 9d78 223b 1b14 473c
00000020: c25d d4bc 9bfb 163d 14f9 46bc c98e 86bc
00000030: c0e1 28bc 3458 19bd 91e4 473c c385 52bd
00000040: 6da2 9bbc 764d 9a3d 172c 483c 4255 8b3c
00000050: f280 243e 6e20 783d da13 4fbc 808b 42bc
00000060: 5d9b 253d eb1f 58bc d731 d5bc fa1d 9c3d
00000070: 690c fbbb f476 bebd 04ac 093c a587 163c
00000080: b640 16bd 1bbd 2cbd bbef ecbd b109 613d
00000090: 7309 34bd 3e2e 56bd fec1 c4bd 0a11 2c3b
000000a0: 83b4 aa3c 051f 98bd 17d7 d23c 57a5 8abc
000000b0: 092d 41bd e553 373d 5b0c b23d 9ae4 2d3d
000000c0: 3e85 583d 2039 50bc 74e4 3e3d 8ee0 1e3d
000000d0: 64b1 3dbd 9a9d 473e 549c 673b a16c babb
000000e0: 4a67 ea3c 2495 443c b1ac 04bd 87a4 d7bd
000000f0: fb09 4ebd 2699 043e f894 b3bc ffd3 c7bd
00000100: dffa 1ebc 431a 9abc 622b e83c 537d f4bc
00000110: 6d67 183d 7209 5bbd 6e08 4abc ef6a 1a3c
00000120: 737d 9a3e 5b1b c33d e042 513d e955 95bd
00000130: 3702 f1bd a404 aebb 0642 06bd b414 6fbd
00000140: 81c9 ae3e cf16 003d 19f7 153d ac12 cabc
00000150: 43aa 91ba b38b 513d 2564 eebc f806 b8bc
00000160: 5197 593e 38e2 be3d 1d7e 4a3c dd26 aebc
00000170: 3e49 cc3d a7da 58bd a298 2d3d 039c 223d
00000180: 1a32 263d 2924 973e 502a 083d d728 9dbd
00000190: d6f9 71bd 7e8e 8fbc 3c0d c7bb 3893 a9bc
000001a0: 6777 cb3d eaff 6f3e 25b5 2d3d ce69 c0bc
000001b0: 6ef1 343d 1ef3 0cbd eba3 803c e973 c3bd
000001c0: bb81 423c 8dac 913e be17 dcbb 9903 83bd
000001d0: a0a7 b53d bda3 04bd 7d57 b8bc ca0c a0bd
000001e0: 2147 203d 65de b83c 8506 c13c 9c59 8cbd
000001f0: f99b ccbd fcd5 8c3d ee07 41bc 3ba1 ddbd
00000200: 5c1c 8b3d d2f8 763d 4fe6 0a3d bfac b0bd
00000210: ae13 f0bc 1639 5e3d bdd8 913c f4d9 83bd
00000220: 4465 95bc 9a50 ec3c 34ac 753b 4285 d8bc
00000230: 30b7 cbb9 a520 f9bc 3f46 403c fb7f b6bc
00000240: c394 0dbd 2845 553d 0b83 023d 4c1d 64bd
00000250: 9f76 c23d cdf2 cebd 67e0 793c 51b0 38bd
00000260: ed64 2c3d b3f3 c93d 902c 8e3c 5a5d b23d
00000270: 595e ae3d 83a1 23bc 70be c63c 017b 803d
00000280: 4bbd a33b cafc ed3d adec 7bbc e2bc ad3d
00000290: 1087 4c3c 7b96 b73d ceb0 72bd 3426 d53d
000002a0: 2fec 2cbd 5e79 123e 15cb 5c3d 6455 8abc
000002b0: 92c5 a5bd 8376 c33d 1690 403d 2903 3b3d
000002c0: 9a3b 8bbc 1f6e fc3d 6871 f9bd 5ce2 1f3d
000002d0: 4e53 773d e8a2 8c3d eb3f f3bd 451b dd3d
000002e0: 377e 4f3d 10d4 fe3d 7d3e 763b b058 39bc
000002f0: f015 d43d 9795 6e3d 3a3c 9b3b 4207 c3b9
00000300: 3786 98bc 0381 843d de1d e6bc b640 963c
00000310: a1f7 7cbd 4f3e 063e 243c 38bc 2c37 803d
00000320: bd2f 82bd 3830 573d 1a53 32bc e314 a53d
00000330: 86f2 9b3d 475e 023e 31e6 50bd f9dd 643d
00000340: 3302 9ebc 4065 7d3d 4242 683d 1648 8d39
00000350: a277 023e 3346 a83d 4ab2 3a3c 967e 2e3a
00000360: 8240 a43d b293 933c 16ef 0bbd 6485 28be
00000370: 9135 5d3d 463a 813c 2582 04bd e81e 37be
00000380: d1b5 973c 5cbd 39bd d94b 733d 7a9e 66be
00000390: c5e4 af3c 107e 553d 9a0d 4b3d 21c9 4cbe
000003a0: 4f3d 063c 039a 90bc 1a09 92bc 8e17 113d
000003b0: 2542 d4ba 32a3 ac3d a226 7bbd d29d 79bc
000003c0: cbfb 9abc e4c8 2d3d bbd3 ecbc 5062 ec3d
000003d0: e447 31bb 094e 97bd a9ca b7bd cce4 ea3d
000003e0: ae9c bb3c eba4 443d f6e6 d33a d7a4 843d
000003f0: 1366 813c d749 95be 0172 b1bc 4fde 853d
-0.033362217 0.056810953 0.004401576 -0.018872136 -0.12871167 -0.018062798 0.002479113 0.01215079
-0.025923613 0.036861043 -0.012144346 -0.016425507 -0.010307729 -0.037437633 0.012200491 -0.051397096
-0.01899835 0.07534306 0.012217543 0.017008428 0.16064814 0.060577802 -0.01263901 -0.01187408
0.04043137 -0.013191204 -0.026024742 0.07622905 -0.0076613915 -0.09300032 0.008402828 0.009187614
-0.036682807 -0.042172533 -0.115691625 0.054940883 -0.043954324 -0.052290194 -0.096073136 0.0026255273
0.020838028 -0.074277915 0.025737328 -0.016924543 -0.04716209 0.044757742 0.08693763 0.04245434
0.052861445 -0.012708932 0.04660459 0.03878837 -0.04631175 0.19493714 0.0035340982 -0.005689219
0.028613705 0.0119984485 -0.032391254 -0.10529428 -0.050302487 0.12949046 -0.02192162 -0.09757232
-0.009703367 -0.01881135 0.028340999 -0.029844915 0.03720801 -0.053475805 -0.012331111 0.009424909
0.30173835 0.09526702 0.051089168 -0.07291777 -0.117680006 -0.005310612 -0.03277781 -0.058369353
0.3413811 0.031271752 0.036612604 -0.024667107 -0.0011113364 0.05115862 -0.029100487 -0.02246426
0.21249129 0.093204916 0.012359169 -0.021258766 0.09974907 -0.052942898 0.04238189 0.039699566
0.040575124 0.29519776 0.033243477 -0.07673805 -0.059076153 -0.017524 -0.0060745757 -0.020700082
0.099348836 0.23437467 0.04240908 -0.023487952 0.044175558 -0.034411542 0.015703162 -0.095435925
0.0118717505 0.28451958 -0.0067166975 -0.063971706 0.088698626 -0.032382715 -0.022502655 -0.07814939
0.039130334 0.022566983 0.023562679 -0.06853029 -0.09990687 0.06876752 -0.011781676 -0.10821768
0.067925185 0.060295887 0.033911046 -0.08626699 -0.029306259 0.05425366 0.017803544 -0.06438056
-0.018236764 0.028847028 0.0037486674 -0.02643073 -0.00038855663 -0.030411074 0.011735498 -0.022277823
-0.0345657 0.052067906 0.031863254 -0.055692002 0.094952814 -0.10104904 0.015251256 -0.045090023
0.042088438 0.09860935 0.017355233 0.08709212 0.08514089 -0.009987238 0.02426073 0.06273461
0.0049969307 0.11620481 -0.015376252 0.08483292 0.012483373 0.08964249 -0.059250645 0.10407677
-0.04221743 0.1430411 0.05390461 -0.01688642 -0.08094324 0.09544089 0.04701241 0.04565731
-0.016996194 0.123256914 -0.12179834 0.039034232 0.06038218 0.068670094 -0.11877426 0.10796217
0.050657477 0.124427915 0.0037573867 -0.011312649 0.10355747 0.05824813 0.004737404 -0.00037198706
-0.018618686 0.064699195 -0.028090414 0.018341403 -0.061759595 0.13109706 -0.011244807 0.06260523
-0.063567616 0.05253622 -0.010884071 0.080606245 0.07614617 0.12731276 -0.051000778 0.055875752
-0.019288158 0.061864138 0.056703813 0.00026947324 0.12740949 0.082165144 0.0113950465 0.0006656436
0.080201164 0.018014763 -0.034163557 -0.16457134 0.054006163 0.015774857 -0.032350678 -0.17882884
0.018519314 -0.045346603 0.059398506 -0.22521392 0.02147139 0.052122176 0.04957352 -0.199986
0.008193328 -0.017651564 -0.017826606 0.035422854 -0.0016194029 0.084295645 -0.06131614 -0.015235381
-0.018918892 0.042427912 -0.028909555 0.11542189 -0.0027050907 -0.07387931 -0.08974201 0.11469421
0.02290186 0.04800884 0.0016166854 0.06476753 0.015795743 -0.29157898 -0.021660807 0.065365426

fc1.bias f4 [512]
00000000: d749 58bd 6b49 ea3c cb0e 713a f9dc 81be
00000010: 6c1a d3bd 19d0 52bb 5263 04be a067 213e
00000020: a1f0 8cbd 8530 2ebd 9920 f6bd d5e8 563b
00000030: 3af2 343e 0218 553e 1e7c 4fbe 77dd 3fb9
00000040: abdc 84bd eafa 29bd 5799 36be 09dd 693e
00000050: 85b4 ff3d c67f f7bd 17f8 963d e7da 58bd
00000060: f0c9 453e 6bf7 4bba 3932 ba3d 6600 4abc
00000070: da3e 97bd f058 49be 2ddb 57be f7c1 093e
00000080: ad61 303e c9b8 473e dc95 c73d 4909 81be
00000090: c452 1ebe 1440 513c c2d8 7fbe 60b2 15bd
000000a0: b04d ab3d 5f11 69bd 4bfe 823d 4d36 15bc
000000b0: c20c c8bc 8db0 283d aedc 2d3d f910 7dbe
000000c0: bf8c 1f3e 0869 273e c313 39be c4e8 aabd
000000d0: 5e00 39bd cf13 0dbc 20be 5bbe 61d3 35ba
000000e0: 33ba 0c3c 3730 dd3d 80db 093e 45c7 323d
000000f0: 210e a23d a018 24bd c118 9fbd 229b 813d
00000100: 095d 433e df73 81bd 85b9 1fbe 4380 3d3c
00000110: 954c 55be 02dd a03c 91fe 1e3e 7972 c3bd
00000120: b1d1 7ebd 32a2 ed3d 5328 a93d 4d72 453e
00000130: 5fa7 a5bd a5f5 00bd 928c 22be 6508 65bd
00000140: 53f3 8bbc 8fea 143e f5c2 573e ca5f 0fbe
00000150: d8ad 2b3e ddcf 21be dcc6 21be fb3d 85bc
00000160: ed72 503e 9274 983d f79d 0fbe 8107 d1bc
00000170: c957 553e 4f9d 8c3d 418c 3fba ddf1 a4bd
00000180: 98ba 163e d463 243e 53cf 1d3e 9013 b13d
00000190: 642c 05be 8f71 6ebe c7e1 1b3e dcfb f03c
000001a0: 3730 333d 4ed0 a93d cbd3 e7bd e7b6 f6bd
000001b0: d718 893d b1c8 c7bd 1d4e 57be a04a 76bd
000001c0: 4cf8 21bc 4d94 4ebe fb51 5bbe 6574 4ebd
000001d0: b52c 42be 54dc 033e 231b 55be f613 0dbe
000001e0: b226 28be c6e8 7bbd 4438 44be 5c10 21bd
000001f0: 70b4 fbbd 6d0c c43d 1cf4 32be 462d 493e
00000200: 941b 393e ab15 98bc c880 26bd f802 d2bd
00000210: 806a bebd e2cb 14be 5ae5 153a 39da 343e
00000220: 51ac 39bd bd24 4bbd c184 803c f7ce 73be
00000230: 90ea c5bd 6d0b 60be 5fb2 fcbd 2519 57bd
00000240: 0e5c 173e f1dc 6f3d d826 52bb 3a2e 473e
00000250: 9619 af3d 4713 233d 8b13 a83d 59d4 b1bc
00000260: 14f2 3d3d 7684 493d f86f d93c ea30 62be
00000270: 0ec8 23bd 1bda c33d 1d8a 863d a33f b63d
00000280: 59a3 abbd dce3 fe3d 9d7c 3abd 3bb6 f0bd
00000290: 57b2 23be d801 b33c 90c8 62be c8c8 aa3d
000002a0: 1ece d7bb 9144 1abd 2681 323e bcb8 d3bc
000002b0: ac31 f8ba 9dd3 013e f8f8 6f3d 4ce9 5c3c
000002c0: db4a 2a3e 48e8 24be b05a d23d 6e7f 353d
000002d0: 19f9 e9bd 33b6 693d b790 a5bc facb d4bd
000002e0: 68c5 0bbe 6679 ecbd a621 3d3e 127a 0c3e
000002f0: b5ed 97bc 5dc9 953d 50fd a63d 49cd e53d
00000300: 16c2 08bb 29b4 d13d 8438 19bd b57f 7d3c
00000310: fa74 f2bd e03b 63be 23aa 9bbd b210 68be
00000320: 21f9 623d 21da 9f3d e1a4 a93d 6fe5 63be
00000330: 989c 893d 70e6 323e d41e 073d 3798 6cbe
00000340: 33ba 80bd e441 453e 4de5 d2bd 2cd0 75be
00000350: e581 313e db2a 193e 807d e53c 7484 5b3e
00000360: 491e 2cbe baee 133e 2b85 4fbe 044d aebd
00000370: c077 2d3e 7b05 25be 9ffa 42be 857c b0bc
00000380: bfe6 513e 53c4 07be 5ff5 0bbe 445d d73d
00000390: 8991 f13d 0598 c3bd 2490 cfbd 438d a03d
000003a0: 924e a83c 7c29 efbd 967d cebd 0116 943c
000003b0: bfae fe3c db0b 193e 33e3 8e3d 917d 043c
000003c0: f762 063e 1ff8 5dbe 9ca1 3a3d 79f1 c53a
000003d0: 538a 4abe 6429 9fbd 8f10 52bd e51b 66be
000003e0: 6c0a 383c 1b80 6f3e d3e9 46be f8b4 9cbc
000003f0: 0abb ebbd a10b a8bd b292 8b3d 771c 21be
-0.052804794 0.028599462 0.0009195625 -0.253639 -0.10307774 -0.0032167493 -0.12928513 0.15762186
-0.06881834 -0.04252674 -0.12017936 0.0032792587 0.17670527 0.2080994 -0.2026219 -0.00018297682
-0.064874016 -0.041499056 -0.17831932 0.22838224 0.12485603 -0.12084918 0.07371538 -0.052943137
0.19315314 -0.00077807036 0.090916105 -0.012329197 -0.07385035 -0.19662833 -0.21079703 0.13452898
0.1722476 0.19504084 0.0974538 -0.25202397 -0.1546126 0.012771625 -0.2498503 -0.036547065
0.08364427 -0.056901332 0.06396159 -0.009107185 -0.024420146 0.041183997 0.042446785 -0.24713506
0.15581034 0.1634866 -0.18073945 -0.08345178 -0.045166366 -0.00861068 -0.21459246 -0.00069361
0.008589315 0.10800212 0.13462639 0.04364707 0.07912851 -0.040062547 -0.07768393 0.06328417
0.19078459 -0.06320929 -0.15598114 0.0115662245 -0.20829995 0.019636635 0.15526797 -0.09543318
-0.062211696 0.11603202 0.08259644 0.19281884 -0.08088564 -0.031484265 -0.15873936 -0.05591621
-0.0170838 0.14542602 0.21070464 -0.14001384 0.16765535 -0.1580195 -0.15798515 -0.016264906
0.2035634 0.07444109 -0.14025103 -0.025516273 0.20834269 0.06865942 -0.0007306971 -0.08053944
0.14719617 0.16053706 0.15411119 0.086463094 -0.13005215 -0.23285507 0.15222846 0.02941697
0.043747153 0.08291684 -0.11319693 -0.120466046 0.06694191 -0.09755076 -0.21025892 -0.06012976
-0.009885859 -0.2017376 -0.21417992 -0.05040397 -0.18962367 0.12877017 -0.20811133 -0.13777146
-0.16421011 -0.061501287 -0.19162089 -0.039322242 -0.12290275 0.095726825 -0.17475933 0.19646177
0.18076926 -0.01856502 -0.04065016 -0.102544725 -0.09297657 -0.145309 0.0005718075 0.1766137
-0.04533035 -0.049595583 0.015688302 -0.2380942 -0.0966388 -0.21879359 -0.12338709 -0.052514214
0.1478121 0.058560316 -0.003206661 0.19451228 0.08549802 0.039813306 0.082068525 -0.0217077
0.04637344 0.04919859 0.026542649 -0.22088972 -0.03998571 0.09563085 0.06569312 0.088988565
-0.083807655 0.124458045 -0.045528997 -0.11753508 -0.15986 0.021851465 -0.22146821 0.08339077
-0.0065858504 -0.037663046 0.17432079 -0.025844924 -0.0018935702 0.1267838 0.058587044 0.013483357
0.16630118 -0.16104233 0.102712035 0.04431098 -0.11424465 0.057058524 -0.020210607 -0.10390468
-0.13649523 -0.115465924 0.18469867 0.13718441 -0.018545965 0.073137976 0.08153784 0.11220796
-0.0020867637 0.10239441 -0.037407413 0.015472342 -0.11838718 -0.22190809 -0.076008104 -0.22662619
0.05541337 0.07805277 0.08283401 -0.2225549 0.06719321 0.17470717 0.032988384 -0.2310494
-0.06285515 0.19263417 -0.10297642 -0.24005193 0.17334707 0.14957754 0.028013945 0.21437246
-0.16808428 0.14446536 -0.20265643 -0.08510783 0.16940212 -0.16115372 -0.19040917 -0.02154375
0.20498179 -0.13258485 -0.1366782 0.10515836 0.11795337 -0.0955048 -0.101349145 0.078394435
0.020545278 -0.116778344 -0.10082547 0.018076899 0.031089185 0.14945929 0.069769286 0.008086578
0.1312369 -0.21676682 0.04556428 0.0015101872 -0.19779329 -0.077715665 -0.051285323 -0.22471578
0.0112329535 0.23388712 -0.19425134 -0.019129261 -0.11510284 -0.08205343 0.06815089 -0.15733515

fc2.weight f4 [256, 512]
00000000: 608d b63d a021 ecbd c995 c23c 8162 d1bd
00000010: 9a07 ddbd 580d b6bd 8e8f aebc 1962 a93c
00000020: 64d7 4a3d 1011 03bd d2e9 9dbd 0c7c e73d
00000030: 56aa 063d 189c 28bc 1b50 8e3c e617 52bd
00000040: ca07 073c d46c 923d 99a7 f3bc 2cef ba3d
00000050: b4a5 b5bd f94d c4bc 6509 58bd 0940 dcbc
00000060: 9de6 54bd d34e e93c cb45 39bd 93ce 013e
00000070: 2d03 44bd fe0d 8abc aa93 f9bc 62b3 3cbe
00000080: 7396 a3bc 9885 903d 6124 033c 2f67 0d3d
00000090: e0ef 813c 26ac b6bd 1fdb 5ebd 044c c9bd
000000a0: af67 4a3d 013e 52bc 5618 f3bc ddbb 9fbd
000000b0: e93c 23bd ded6 653c 735e c9bd c92e 973c
000000c0: a7a3 5fbd b4c2 8f3d bbf3 633d b25f 5b3d
000000d0: b7f8 053d 3102 003e 5bdc 34bc 232b 743d
000000e0: 260f dc3c ff77 4dbd 83eb 43be 3916 b43c
000000f0: 6e77 d7bd 9abc 703c e221 d73c ada6 053d
00000100: bbe0 9c3c 32b5 9b3c 8f55 cabb f49b b53d
00000110: 0fb7 353d f6a7 4dbd b738 543d d6a5 9abb
00000120: a7fc 7a3c d8c6 6abd c890 a1bd 7ef4 d73c
00000130: 2298 01bd 5d6e f9bc 293f b63d d7f5 4abc
00000140: a6c6 bd3c df04 ecb9 8290 d1bc f032 6c3d
00000150: 380f e6bc f485 8cbb 5aa2 55bc 47de a43c
00000160: 58c3 f0bd a87c 24bd b3c8 1d3c 77fc babc
00000170: 4d04 923d 5b99 6d3d f070 28bc d2d9 0fbe
00000180: 7052 1f3d ecc8 e93c 3815 943a 11c5 74bd
00000190: 0b28 e63c 10d4 20bd 016e 01bd af30 3e3d
000001a0: 4d06 8dbc c66f 373c 43c2 433c c6b4 043c
000001b0: bcd8 1ebd ded6 81bd eb2b d8bb 645d ac3c
000001c0: 24ef 06bd 8e4e 163e c668 12bd 213f 2e3c
000001d0: d46b 8a3d 7ac6 833c d808 8c3c 348d 8bbd
000001e0: 6538 c7bd 115b 92bc 62af bb3d f65e 07bd
000001f0: 162c 2c3d 7fd0 b1bb 30b0 943c 7553 00be
00000200: 1ff8 293d fb3c 8abd 228a 05be eb9f 9d3d
00000210: b04d bebc 0358 2dbd a654 003d 6250 10bb
00000220: 086f 34be df4e ca3b d507 01bd 14ea 55bc
00000230: 27c2 0b3d a95b 7c3b 2997 0ebd b992 cd3d
00000240: f8a6 69ba ba72 673d d4fe 81bc 1ca4 113d
00000250: bae7 4dbd 3af5 91bc 2794 a13c 9048 a63b
00000260: a854 4b3d ac3d 433d 4a60 f2bb 7030 03be
00000270: c625 8dbd f279 0abd ec12 2e3d 0b53 61bd
00000280: c885 3d3a 4ab2 e0bc 6b96 f7bd 46e3 1bbd
00000290: 4ad6 9b3c d6c7 053d 5bc1 863d aa72 933b
000002a0: 7896 9b3d b767 2dbd fc53 86bc 40b5 abbc
000002b0: aa28 bcbd 5b06 0bbb 239d 89bc b92b 573d
000002c0: 59e1 5abd cceb 18bd dcaa 48bd 0fcb b1bc
000002d0: 624b 99bd 3238 cc3b a049 073c 9fe9 9f3b
000002e0: 9e7e e2bb 47a3 553d c176 a13d c4bc 33bc
000002f0: cc7c 86be 4d88 ee3c 4aa8 3abd 1fb5 603d
00000300: ec8f 943d b109 32bc a787 0cbd c0b5 f13c
00000310: 11b7 0e3d c530 163d 0201 05bd d171 e5bd
00000320: 606c 043d 25b2 e33c fcc1 8a3d 15ba a53c
00000330: 3fed 76bd ef9b 6cbd 9e56 d13c 6e5c 44bc
00000340: 381e 923c c1e4 0a3c 0223 4fbc 5989 263d
00000350: 727e bf3c fb2a de3c 35a6 7e3d dbc0 50bd
00000360: b6d1 3abe 24f6 033d 1dde e43c 1dde 933c
00000370: d440 17bd 08d9 153d da00 b83c 35e0 7abc
00000380: 350a 09be 8a21 16bd 6672 51bd f8bd 66be
00000390: 900d 50bd 16da 82bd 35f7 1abe d53a 00bd
000003a0: 11ec 1e3e 16a4 a33d 8b6d c3bd 40d5 be3c
000003b0: d4ee 393d f32f e1bb e861 41bd 603d 46bc
000003c0: c1ed 32bd d57a 683d 18af 8cbd a101 60bd
000003d0: ce63 1e3b e1ce 0ebb 9339 16bb 5d99 24bd
000003e0: cdd2 81bd aef2 283d 5d86 b43d cf30 06bd
000003f0: fd2a 0e3d a353 cdbb 3052 90bb 5ecb 8a3a
0.08913684 -0.11529851 0.023753064 -0.10223866 -0.107924655 -0.08889264 -0.021308687 0.02067666
0.04952182 -0.031998694 -0.07710613 0.11302957 0.03287729 -0.010291122 0.017372182 -0.051292323
0.008241603 0.071496636 -0.029743003 0.0912765 -0.08869496 -0.023962962 -0.052743334 -0.026886003
-0.051977742 0.02847997 -0.045232575 0.12676458 -0.04785459 -0.016852375 -0.03046592 -0.18427804
-0.0199692 0.07056731 0.008004279 0.03452223 0.015861452 -0.089195535 -0.05440819 -0.09828952
0.049415287 -0.012832166 -0.02967469 -0.07799504 -0.03985301 0.014028279 -0.09832468 0.018454926
-0.05459943 0.070195585 0.05565236 0.05355806 0.032707896 0.12500836 -0.011038865 0.05961145
0.026862692 -0.050163265 -0.1913281 0.021983253 -0.10520826 0.014693404 0.026261274 0.032629658
0.019150129 0.0190073 -0.00617475 0.08867636 0.04436403 -0.05020901 0.0518119 -0.004719476
0.015319026 -0.05731854 -0.07888943 0.0263617 -0.031639226 -0.030448133 0.088987656 -0.012387714
0.023166012 -0.00045017057 -0.025581602 0.057665765 -0.028083429 -0.0042884294 -0.013039196 0.020125521
-0.11756009 -0.040157944 0.00963037 -0.022825463 0.071297266 0.05800758 -0.010280833 -0.14047936
0.038896978 0.02853819 0.0011297828 -0.05975825 0.028095266 -0.03926474 -0.03159905 0.046433147
-0.017214919 0.011196082 0.011948171 0.00809974 -0.038780913 -0.06339811 -0.0065970323 0.021040626
-0.032942906 0.14678404 -0.03574445 0.010635168 0.06758848 0.016085852 0.01709406 -0.06814042
-0.09727553 -0.01786569 0.09164311 -0.033049546 0.04203423 -0.005426466 0.018150419 -0.12531836
0.041496392 -0.06749912 -0.13040975 0.076965176 -0.023230404 -0.042320263 0.031330727 -0.0022020568
-0.1762048 0.006173953 -0.03150161 -0.013056297 0.034120705 0.0038506782 -0.034812126 0.10037751
-0.0008913125 0.056505896 -0.015868582 0.035556898 -0.05026982 -0.017817128 0.019723965 0.005074568
0.04964128 0.047666237 -0.0073967325 -0.12811446 -0.0689197 -0.033807702 0.042498514 -0.055010837
0.0007229713 -0.027428765 -0.12089237 -0.03805854 0.01902308 0.03266128 0.065798484 0.004499753
0.07597059 -0.04233524 -0.016397469 -0.02096045 -0.091874436 -0.0021213505 -0.016798561 0.05253193
-0.053437565 -0.03733425 -0.04899107 -0.021703271 -0.07485081 0.006232285 0.0082573 0.0048801447
-0.0069120666 0.052157667 0.07883979 -0.010970298 -0.26267087 0.029117728 -0.04557065 0.05486023
0.072540134 -0.010866568 -0.034309056 0.02950561 0.034842554 0.036667604 -0.032471664 -0.112033494
0.032329917 0.027794907 0.06775281 0.020230332 -0.06028485 -0.057765897 0.025553998 -0.011984928
0.017836675 0.008477391 -0.012642624 0.04065833 0.023375724 0.027120104 0.062170226 -0.05096517
-0.18244061 0.03221716 0.027937943 0.018050248 -0.03692706 0.03658393 0.022461344 -0.015312244
-0.133828 -0.03665308 -0.05113449 -0.22533405 -0.050794184 -0.06389253 -0.15133364 -0.031306107
0.1551974 0.07990281 -0.09542378 0.023295045 0.04539378 -0.006872171 -0.04721251 -0.012099594
-0.04368377 0.056757767 -0.06869334 -0.054689053 0.0024168375 -0.002179079 -0.00229225 -0.04018532
-0.06339035 0.041247062 0.0881469 -0.03276139 0.034708966 -0.006266074 -0.0044043288 0.0010589173

fc2.bias f4 [256]
00000000: ff68 3b3d da9c 33bd c4e3 2dbc 50f6 973a
00000010: f84c dfbc bac8 2e3c 93fd 84bc 5c85 733c
00000020: 7b95 d83c 9075 9e3d fc4f e3bd 59d7 c3bc
00000030: 0dd7 ff3c 682f f23b 546e fabc aecc a8bd
00000040: b0a0 d83c 6daf 56bd badd b33a 5a87 c9bc
00000050: 0216 5f3d 7660 293c 5a02 5cbc f004 a5ba
00000060: cc7e bfbb 067b 18bd 022e 9abc 6f72 60bd
00000070: adb6 73bd bac3 a5bb 2f5b e73b 585f bf37
00000080: cf38 1fbd 21be 8ebc 1423 e93c 1a07 f63b
00000090: cf2f da3c 8931 33bb 4f8e 1a3d 88e6 8e3a
000000a0: 7ac1 633d 6a8b dbbc 1190 04bc 4e77 1abd
000000b0: 8b31 96bd 1f7e 0d3b 2e03 ffbb f1f1 4a3d
000000c0: 4bf1 543d 5e07 0abd 4182 d53c e2aa 36bc
000000d0: 947b 97bc a770 1dbd b0ed 523d 10f5 12bc
000000e0: 056d bdbd 877e 28bd e3b0 d7b8 8f14 193c
000000f0: 6664 90bd c3ef 253d 8bb5 65bc 0d6d c93b
00000100: 438d 113b fe27 ddbb 1ffa 30bc e58b 203c
00000110: 9bdd 6e3d 04fa 96bc c979 58bd e79b de3c
00000120: 95f9 c5bc d941 b0bc da2c 04bd 28c3 093c
00000130: 89ce 6fbd da70 b53c fbb4 0a3c 0480 063c
00000140: 5edb 84bd 944c c8bd 236c d737 63f3 95bd
00000150: 61b9 733d 0587 283d a05c 923c 9aa5 3b3d
00000160: 5465 2ebd 54c7 973b 9dfb 8a3c f7f6 f7bb
00000170: d5e1 abbc 8275 03bd 1f88 ea3c 98c0 5a3b
00000180: 57cf 193d 4972 833b a976 d8bc a272 243c
00000190: fd94 943c 1649 c6bc 7e9a a8ba c661 01bd
000001a0: 8d3b 1fbd 7376 c0bb 432e 043d 5975 73bd
000001b0: 1c59 163a bbda 423c 4a68 08bd 1796 923a
000001c0: 64c0 88bd e9e9 1e3d 9605 1f3d 34d4 1cbd
000001d0: 5983 6cbd 2c88 1abd da3b b6bc 8c3e 00bc
000001e0: b6fe 223c b646 173d 514b c7bc c958 d1bc
000001f0: 142c 8c3d eb28 9cbc c087 b83c a5c5 113d
00000200: 0bb8 1339 3a41 d2bc 425c 553d f4e3 3e3d
00000210: 4f37 143c b1ba dc3c aee6 1abd ab47 af3c
00000220: c9da 5bbd 808e 91bb b934 44bd 1630 96bd
00000230: a8ee d7bc 215a 143d a46d cf3b 38c8 4bbd
00000240: f786 a7bd 911d 96bd 8360 11bd 7e71 08bd
00000250: 5c0b 38bc dd8b 133d ec28 76bd 7705 15bd
00000260: 2725 06bd 1265 303d 1cfd 45bd cec4 8e3b
00000270: e34c 813c eaa7 2e3b c3bc 593d ee48 623d
00000280: a02e eabc 8c9a 3e3c 4332 31bd fae1 54bc
00000290: aad3 563d f2db 583d bd97 8abc 005f 73bd
000002a0: e722 823a e995 49bc c2ba 763d 92df 873d
000002b0: 7fc8 04bd 80b3 2dbc 9022 013d 1d58 833d
000002c0: 0fc3 93bd 82f4 f6bc 4223 163d 2c56 acba
000002d0: 7ec3 60bd 3169 a63d c4a0 133c 9f15 b23c
000002e0: fc7f bebc f323 5a3d 009c 553c 5ecc 81bd
000002f0: 40da 3f3d f56c a33c ec93 c63c 022b fdbc
00000300: 81d2 8a3c 978b bdbc a0f9 c63b a3f4 2f3d
00000310: 927a 4c3d f5a1 223c fd69 52bd 8b19 6bbd
00000320: 9874 773b 7ed2 e7bc 8778 eb3c 5cb1 88bc
00000330: 7406 533d 1aa0 35bd 368b f2bc 70a5 9a3b
00000340: 7ef5 0bbd e950 343c e68e fabb 92f9 273d
00000350: a3c5 22bc 7df8 8e39 c2c4 2d3d 0871 52bb
00000360: 12e6 083d 85a8 6ebc 7766 29bd e738 19bd
00000370: f9a6 573c 4c6d 143d 4123 663d 1b59 263d
00000380: 9612 843d b2f8 69bd 22da d03c beed c9bc
00000390: 2a4e afbc 136b 0c3d 2b6e 19bd d718 b5bd
000003a0: a28d 0dbd b398 77bc 70c6 79bb e76a 523d
000003b0: 6db9 20bd 02e2 f2bc be7a 963b 6f6c c53c
000003c0: 7858 1e3c 3dcc a9bd 22f4 0abc 6f05 4a3c
000003d0: da0c 96bc 02d9 a7bc 3684 163d d46b c5bc
000003e0: 2632 4f3d bc5d f4bc ec48 1abd a58e 28bd
000003f0: cf59 bfbc 963f 3c3d 8863 73bd c7d8 1c3d
0.04575443 -0.043850757 -0.010613386 0.0011593793 -0.027258381 0.010667974 -0.016234195 0.014863338
0.026438465 0.07737267 -0.1109924 -0.023906397 0.031230474 0.007390905 -0.030570187 -0.082421646
0.02644381 -0.052413393 0.0013722696 -0.024600673 0.054464348 0.0103379395 -0.013428295 -0.0012589972
-0.005843973 -0.0372267 -0.018820766 -0.054796632 -0.059500385 -0.005058733 0.0070604305 2.2813372e-05
-0.038872536 -0.017424645 0.02845911 0.007508171 0.026634125 -0.0027342758 0.037733372 0.0010902444
0.055604436 -0.026799876 -0.008090989 -0.037711434 -0.07333668 0.0021590067 -0.0077823615 0.04954714
0.051987927 -0.033698432 0.026063086 -0.01114914 -0.018491544 -0.03843751 0.051496208 -0.00896956
-0.092493095 -0.04113629 -0.000102849466 0.00934328 -0.070503995 0.040511858 -0.014020334 0.006147033
0.0022209443 -0.006749152 -0.010801821 0.009798978 0.05831681 -0.018429764 -0.05285052 0.02717395
-0.024166862 -0.021515774 -0.032269336 0.008408345 -0.058546577 0.022148538 0.008466001 0.008209232
-0.064871535 -0.09780231 2.5680352e-05 -0.07321813 0.059502963 0.04114439 0.017866433 0.045812227
-0.042577103 0.004631916 0.016965682 -0.0075672823 -0.020981709 -0.032094486 0.02862936 0.0033378955
0.03755125 0.0040114266 -0.02642377 0.010037096 0.01813745 -0.024204772 -0.0012863425 -0.031587385
-0.03887515 -0.0058734952 0.03227068 -0.059438083 0.0005735324 0.01189297 -0.033302583 0.0011183646
-0.066773206 0.038797293 0.038823687 -0.03828831 -0.05774245 -0.03772752 -0.022245336 -0.007827412
0.009948423 0.03693267 -0.024327906 -0.025555031 0.06844345 -0.01906248 0.022525668 0.03558888
0.00014087574 -0.025665868 0.052089937 0.04660411 0.00904639 0.02694449 -0.03781765 0.021396479
-0.053675447 -0.004442036 -0.047901843 -0.073333904 -0.026358917 0.036218766 0.006330209 -0.04975149
-0.081800394 -0.07329858 -0.03549243 -0.03331136 -0.011233177 0.036022056 -0.06009762 -0.036382165
-0.032750275 0.04306514 -0.048337087 0.004356957 0.015783733 0.0026650378 0.053158533 0.055245332
-0.028586686 0.0116335265 -0.043260824 -0.01299333 0.052447952 0.05294413 -0.016918058 -0.05941677
0.0009928615 -0.012303808 0.0602367 0.066344395 -0.03241777 -0.010601878 0.031527102 0.06413291
-0.07214939 -0.030145887 0.03665472 -0.001314824 -0.054873936 0.081255324 0.0090104975 0.021738825
-0.023254387 0.05325694 0.013037682 -0.06337808 0.046839 0.019949416 0.024240457 -0.030904297
0.01694608 -0.02313785 0.006072238 0.042957913 0.04992158 0.009926309 -0.05137061 -0.057397407
0.0037758704 -0.028298613 0.028743995 -0.016686134 0.051519826 -0.044342138 -0.029607397 0.0047194287
-0.034169666 0.011005619 -0.0076464294 0.041009493 -0.009934816 0.0002726949 0.04242397 -0.003211083
0.033422537 -0.014566545 -0.041357484 -0.037407782 0.013162368 0.036237046 0.056185964 0.04061232
0.064488575 -0.05712194 0.025494639 -0.024649497 -0.021399576 0.0342818 -0.03745858 -0.088426284
-0.0345589 -0.01511209 -0.0038112663 0.05137148 -0.039239336 -0.029648785 0.0045922687 0.024099557
0.009664647 -0.082909085 -0.008481057 0.012330397 -0.018316675 -0.02048922 0.03674718 -0.024099268
0.050584935 -0.029829852 -0.0376672 -0.04115166 -0.023358254 0.045959078 -0.059421092 0.038292672

fc3.weight f4 [2, 256]
00000000: 8d2c b93d 71c6 953e 21a3 923d 3da3 13bc
00000010: b1f6 afbe 4070 523e 3753 a6bd 91b0 14bc
00000020: 2d9a 563e 4d46 2abe cd38 6dbd 3ddb 32bd
00000030: c862 553d cdc1 a5bd cebe 36bd 49ce 793b
00000040: 2557 783d b828 d63d 244b 10bd e2d5 7c3e
00000050: 5a5b 413e d6ad 223c 44de 9dbd 16c0 b83d
00000060: 0a4f 69bc dceb 91bd 37f3 013e 6cc4 1f3e
00000070: 71aa 8abd 0605 86bb b20e ad3c 1a4f a4bc
00000080: 7f7c de3c d286 20bd 456e 873d 67e4 6d3d
00000090: f181 7e3e eea8 6c3d 0e0e f0bc e3e8 05be
000000a0: 35c0 0b3e b916 64bb 3ab2 c93d 9cae 203d
000000b0: 06b3 38be 8786 1abd 981b 6cbc a1aa 0d3e
000000c0: 9d46 a13d d05b 993e 9177 58bb d6a0 5e3b
000000d0: 072d 92bc 949a 6b3d e1dc bebc e9f0 a63c
000000e0: 1e82 f63d f9b4 253c c291 1dbd 095c 03bd
000000f0: 46b0 913c b8f2 c43d 306a 3b3d 68ca b33d
00000100: 6729 e9bd c0f8 bc3d b600 babb 271e c0bc
00000110: 485e 10bd 8128 30bd 32f0 68be 7c52 943d
00000120: 0d94 0b3e d817 443d 9207 a23c d877 d2bc
00000130: b5ee 02bb 775b 0abe c821 713d 4041 bdbc
00000140: 345b cc3d 7132 443e eea7 6b3e f6d3 a6be
00000150: fdcb 8b3d 8057 4bbd 5be6 cc3d f6af 9c3d
00000160: 5252 863e 4f6b d03c 1095 e23e c81f 3b3d
00000170: cbec 58bc 09c4 5f3e 2083 643c 013a 973c
00000180: ce8f 8abc 3765 353e 1067 36bc 7d2a 3fbc
00000190: 06f1 3f3e 46b4 803e fc83 8e3c 1bbf c53c
000001a0: 8376 f13d 9d63 a23c 420d 273d 2dc0 21bd
000001b0: c8b9 47be 8cd7 85ba 09e0 cf3e 622d 1a3e
000001c0: 1205 edba 8460 ad3d 5712 e33d a6bf 113f
000001d0: 11dd 98be 7247 27bd 98b2 6f3c c088 fd3d
000001e0: ebb5 4d3d b947 0cbc 27d9 723d 90b1 b0bc
000001f0: 5f44 ec3c 6d7c 433d 5dda f03d 57ac 373e
00000200: dd2e 46bd db1f 063d 9604 9bbe 5fc0 953d
00000210: bb65 47bd 5bd6 9cbc 26a6 e2bc 5e80 c43c
00000220: 21be 8c3d fe50 0fbd e557 853e 605e bdb9
00000230: d8a1 d33b fa09 dcbc 4ace 8e3e c091 85bb
00000240: 752b 263e aa01 36bf a080 483d 6ab4 423b
00000250: 16ed 7f3d bca6 e8bc e647 e53d 55e2 013e
00000260: 1acb 793d c7d1 1c3d 409f 0c3d a2c9 af3c
00000270: 7d9e 0cbd c22d 7c3c f9c9 4d3d 20b5 093d
00000280: eb28 de3c 0d98 843d 5b22 97be 3d6e 523d
00000290: fb34 1d3e 3682 b7bc cba2 73ba 87a1 2a3c
000002a0: f78a 25bd 17d6 0e3d ed91 0b3d 8f90 1dbc
000002b0: e2ce debd 379e 35be 2d95 b8bc ce24 c4bc
000002c0: d4a6 2b3b 7bf9 cd3b 958c dcbd 3d4e 993a
000002d0: fb7e 2b3d fb01 7fbd 4560 1fbd f45e 4b3d
000002e0: b982 1c3c 2f7b 06bd 59fb 95bd b5bf a0ba
000002f0: aa94 4cbd a9f2 55bd 5163 18bd 25bd 343c
00000300: bf65 263e 037c fe3c 28d0 a2bd 3ab3 a2bd
00000310: 34a5 9d3d ef75 543e efa1 bcbc d8e3 4c3e
00000320: b4a4 793e 8dec 4c3d c12e b0be 7f21 4c3d
00000330: 7781 693d f72e f33c 8b30 be3c 2ca8 bf3d
00000340: f899 0cbd 9758 5a3d b36b e8bc 0168 9dbc
00000350: d148 ecbd a336 6bbd f667 9cbb b07b b9be
00000360: de13 ad3d dce8 3f3d 2694 eb3d 1b6a 84bd
00000370: cd16 403e a4f8 e43d 0e05 8c3e 18c9 6cbd
00000380: 0a4d 2d3d 397a b1bd 022e 223d b1f9 b1bc
00000390: c5b9 bb3d 184c 4f3e 18b9 01bc 51cc 00bd
000003a0: 5b7c 2b3d 38f6 d1bb ba18 ce3d 7a10 9abc
000003b0: 288d cd3c d49f 8e3d 9cb9 60bd fa86 343d
000003c0: 70e7 9abc a1ec abbd 0993 123d 6200 a23d
000003d0: b3f8 33bd 4c4a 6dbd da51 abbb 996f 023e
000003e0: d194 5dbd ecf9 12be f36a 6e3e fe05 22be
000003f0: 7403 82bd fb99 3dbc 426a b9bd 6d38 393c
0.090417005 0.2925296 0.071600206 -0.009011087 -0.34367898 0.20550632 -0.08121341 -0.0090753
0.20957251 -0.1662838 -0.057915498 -0.043666113 0.05209616 -0.08093605 -0.04461556 0.003811734
0.060629983 0.10456985 -0.03522791 0.24690965 0.18882504 0.009929141 -0.077084094 0.090210125
-0.014240036 -0.07125065 0.12690435 0.15602273 -0.0677079 -0.0040899543 0.021125171 -0.02005725
0.027158974 -0.039191075 0.06612829 0.05807915 0.24854256 0.05777829 -0.029303577 -0.1307712
0.1364754 -0.0034803583 0.09848447 0.03922902 -0.18037042 -0.03772595 -0.014410876 0.13834621
0.078747965 0.2995286 -0.0033030252 0.0033970377 -0.017843736 0.057520464 -0.023298683 0.020378547
0.12036537 0.010113948 -0.038469084 -0.032070193 0.017784249 0.096166074 0.045755565 0.0877884
-0.1138485 0.09227133 -0.0056763543 -0.023451878 -0.035246164 -0.043007378 -0.22747877 0.07242295
0.13630696 0.0478743 0.019779 -0.025691912 -0.0019978706 -0.13511454 0.058870107 -0.023102403
0.09978333 0.19159867 0.23013279 -0.32583588 0.06826017 -0.049643993 0.10004874 0.076507494
0.2623468 0.025441794 0.4425435 0.045684606 -0.01324005 0.21852125 0.013947278 0.018460276
-0.016914275 0.17714392 -0.01113297 -0.011667845 0.18744287 0.25137538 0.01739692 0.024138978
0.117901824 0.01982289 0.040784128 -0.039489914 -0.19504464 -0.0010211333 0.40600613 0.15056375
-0.0018083176 0.084656745 0.110874824 0.5693306 -0.2985616 -0.04083962 0.014629982 0.123795986
0.05022232 -0.008562022 0.059289124 -0.021569043 0.028841196 0.047726084 0.117603995 0.17936836
-0.048384536 0.032745223 -0.30276936 0.073120825 -0.048681002 -0.019145181 -0.027667116 0.023986991
0.06872202 -0.03498935 0.2604362 -0.00036119204 0.0064585023 -0.026860226 0.2789176 -0.0040762126
0.16227515 -0.7109629 0.04895079 0.0029709586 0.062481962 -0.028399818 0.11195354 0.12683995
0.06098471 0.038285997 0.03433156 0.02145845 -0.034330834 0.015391769 0.050241444 0.03362
0.02711912 0.06474314 -0.295184 0.051374663 0.15352242 -0.022400957 -0.00092939724 0.010414488
-0.04041573 0.03487214 0.034074713 -0.009616985 -0.108793035 -0.17736135 -0.02253207 -0.023943331
0.0026191967 0.006285844 -0.107690014 0.001169629 0.041869145 -0.062257748 -0.03891017 0.0496511
0.009552651 -0.03283232 -0.073233314 -0.0012264164 -0.049946465 -0.052233372 -0.03720409 0.011031424
0.1624975 0.031064993 -0.07949859 -0.07944341 0.076975256 0.20748113 -0.023026435 0.2000879
0.24379236 0.05003028 -0.3441067 0.049836632 0.057008233 0.02968548 0.023216506 0.09358248
-0.034326524 0.053307142 -0.028371667 -0.019214632 -0.11537326 -0.057425153 -0.0047731353 -0.3622718
0.08451055 0.04685293 0.115028664 -0.064655505 0.18758698 0.11180237 0.27347606 -0.057808965
0.0423098 -0.0866589 0.039594658 -0.021725507 0.09166292 0.20243871 -0.007917665 -0.03144485
0.04186664 -0.0064075254 0.1006331 -0.018806685 0.025091723 0.069640785 -0.05486451 0.044074036
-0.018909186 -0.08394743 0.035784755 0.07910229 -0.04393835 -0.057932183 -0.0052282633 0.12737884
-0.054097 -0.1435315 0.23282985 -0.15822598 -0.06348315 -0.011572356 -0.0905347 0.011304957

fc3.bias f4 [2]
00000000: 707c c33c 43ce a6bc
0.023863047 -0.020362025
