ddpg_actor_A.pth (torch_old, 579665 bytes, 6 tensors)

fc1.weight f4 [512, 24]
0	0xbd0de298	-0.034639925
1	0x3dd85862	0.10563733
2	0xbcf7fbb5	-0.03027139
3	0x3b9faafc	0.004872678
4	0xbde26fed	-0.110565044
5	0xbdd13934	-0.10215989
6	0xbd03dd79	-0.032193635
7	0x3d1306e6	0.03589525
8	0xbcf1b4ff	-0.029505251
9	0x3d95bd18	0.073114574
10	0xbcbb7565	-0.022883127
11	0xbd269952	-0.04067356
12	0xbc03470c	-0.008012544
13	0xbdcedac5	-0.10100321
14	0x3abf9630	0.0014616903
15	0xbd9aebe3	-0.07564523
16	0xbd147dc7	-0.036252763
17	0x3daf9d4d	0.085749246
18	0x3cd6f6ec	0.026240788
19	0xbe059eda	-0.13048878
20	0x3e0878fe	0.13327405
21	0x3db40895	0.087906994
22	0x3ab56f25	0.0013842328
23	0xbe2331e0	-0.15936995
24	0x3d0dba26	0.034601353
25	0xbdbd4e41	-0.092434414
26	0xbd87bf19	-0.06628246
27	0x3d717c93	0.058956694
28	0x3db91501	0.09037209
29	0x3e225cdb	0.15855734
30	0xbd0279eb	-0.03185455
31	0xbc0472d5	-0.008084019
32	0x3c595754	0.01326545
33	0xbda01960	-0.0781734
34	0xbd84d73a	-0.06486364
35	0x3db33b9c	0.08751604
36	0x3d859eb8	0.06524414
37	0x3d36cb60	0.044627547
38	0xbd3953b7	-0.045245852
39	0x3d102f08	0.035201102
40	0x3d67f974	0.05663438
41	0xbde82439	-0.11335034
42	0xbc9aed45	-0.018911967
43	0x3d19acda	0.03751836
44	0x3d305f45	0.043059606
45	0x3d7fc9d9	0.062448356
46	0x3d2d370b	0.04228882
47	0x3dc67197	0.09689634
48	0x3d571659	0.052511547
49	0xbd53085c	-0.051521644
50	0x3ce4608f	0.027878074
51	0x3ce66fc8	0.028129473
52	0xbc08ec61	-0.008357138
53	0x3d524c55	0.051342327
54	0xbc78eac1	-0.015192688
55	0xbc85eb2e	-0.016347494
56	0x3d1aaba0	0.03776133
57	0xbbdeb482	-0.0067964206
58	0xbd50602d	-0.05087297
59	0x3c036a1d	0.008020905
60	0x3d7f2e79	0.06230018
61	0x3d7441a2	0.059632905
62	0xbd257dcd	-0.040403176
63	0x3c80f708	0.015742794
64	0xbc0eec72	-0.008723365
65	0xbca608b8	-0.02026783
66	0x3af693ea	0.0018812392
67	0x3ce0f9a3	0.027462786
68	0x3e59e4a4	0.21278626
69	0x3d1266f3	0.03574271
70	0xbd1ee353	-0.038791012
71	0x3d88aacf	0.06673204
72	0x3c38e7d9	0.011285746
73	0x3cc9d53c	0.02463781
74	0x3cb60837	0.022220714
75	0x3d2c8f25	0.0421287
76	0x3cdd5023	0.027015751
77	0x3dd64ed5	0.10464255
78	0xbd7c8107	-0.061646488
79	0x3d6826ec	0.056677744
80	0x3d10955e	0.035298698
81	0xbd4ca10f	-0.049958285
82	0x3c920e39	0.017829048
83	0x3d37d52f	0.044881042
84	0x3dab1a79	0.08354659
85	0x3dfccc3e	0.123436436
86	0xbd442216	-0.04788407
87	0x3d40db55	0.04708417
88	0xbd008e68	-0.03138581
89	0xbc59ea98	-0.01330056
90	0xbbafaa90	-0.005360909
91	0xbcf8ba60	-0.030362308
92	0x3e1760cb	0.14783017
93	0x3d31528e	0.04329162
94	0x3cca0759	0.024661707
95	0x3cfaa4ef	0.030596225
96	0x3a46bd60	0.00075813197
97	0x3d839600	0.064250946
98	0x3c837388	0.0160463
99	0x3beb9e76	0.007190521
100	0x3d3389f6	0.04383274
101	0x3d030716	0.03198918
102	0xbcbea449	-0.023271697
103	0x3d817d8d	0.06322775
104	0x3c171da9	0.00922338
105	0x3bb00d96	0.0053727133
106	0xbc827c12	-0.015928302
107	0x3d516862	0.051124938
108	0x3de44218	0.11145419
109	0x3d10b43b	0.03532813
110	0xbd2ea12d	-0.042634178
111	0xbcaa96a9	-0.020823793
112	0xbd5b4d69	-0.05354062
113	0x3d8c6b8e	0.06856452
114	0xbd81e5f7	-0.063426904
115	0x3baa5d3b	0.005199102
116	0x3dc1a5bb	0.09455439
117	0x3df38df0	0.11892307
118	0xbda23a7a	-0.0792131
119	0xbc1318a6	-0.008978045
120	0x3cdadb6c	0.026715957
121	0xbd7fe783	-0.062476646
122	0x3d076a76	0.033060513
123	0x3c269f79	0.010169857
124	0xbca713f8	-0.020395264
125	0x3de5fc45	0.11229757
126	0xbb15adf0	-0.002283927
127	0xbcf1cddf	-0.029517112
128	0x3d287d27	0.04113498
129	0xbcc3e3e9	-0.023912387
130	0xbcd29862	-0.025707427
131	0x3bd4cbf0	0.006494038
132	0x3db1ffb1	0.086913474
133	0x3e070d95	0.13188775
134	0xbd2b4632	-0.04181499
135	0x3ce87cc6	0.02837981
136	0xbcb64d47	-0.022253646
137	0xbcdbf6ce	-0.026851084
138	0x3d1e3366	0.038623236
139	0x3d8e3219	0.06943149
140	0x3e2b4bd1	0.1672814
141	0x3d37099a	0.04468689
142	0x3d3eea19	0.04660997
143	0x3d96b381	0.073584564
144	0xbc9d79d3	-0.01922313
145	0x3d355640	0.044271708
146	0x3d18b605	0.037282962
147	0xbca7f69f	-0.02050334
148	0x3db4f48a	0.088357046
149	0x3d85ea47	0.065388255
150	0x3ca954da	0.020670343
151	0xbc2238e3	-0.009901258
152	0x3cb3c0d2	0.02194253
153	0x3d5bbac1	0.0536449
154	0x3cfcfb7e	0.03088164
155	0x3b5460cb	0.0032406326
156	0x3d5a3e33	0.053281974
157	0x3dd05d74	0.10174075
158	0x3d1ac6da	0.037787296
159	0xbcacfd36	-0.021116834
160	0xbcacc182	-0.021088365
161	0x3d35c52a	0.044377483
162	0xbc2db9a8	-0.010603346
163	0xbdec8cc6	-0.11550288
164	0xbd2daa9d	-0.042399038
165	0x3db4414b	0.08801516
166	0xbd5f2422	-0.05447782
167	0xbdc523a2	-0.09625937
168	0xbd059d31	-0.032620613
169	0x3d65f60b	0.056142848
170	0xbbf1c6d2	-0.0073784376
171	0xbc9abdc7	-0.018889321
172	0xbe0dcfab	-0.1384875
173	0xbd338512	-0.043828078
174	0xbc69cf70	-0.014270648
175	0x3d32cde4	0.043653384
176	0xbc37cc2b	-0.011218111
177	0x3ccc1aad	0.024915064
178	0xbca1cd9b	-0.01975136
179	0xbd43e79b	-0.047828298
180	0x3d12d3c8	0.0358465
181	0xbb8f7029	-0.004377384
182	0xbc89077b	-0.0167272
183	0x3cacd9e2	0.021099988
184	0x3ccd44da	0.025057245
185	0xbb3dd6bc	-0.0028967103
186	0xbd9487aa	-0.07252438
187	0x3c70b0ce	0.014690591
188	0x3d8f8ae2	0.07008912
189	0x3dae2051	0.085022576
190	0xbd9285d2	-0.071544304
191	0x3cd1f87f	0.025631187
192	0x3b12b41e	0.002238519
193	0x3d0887bf	0.033332583
194	0xbcb8a250	-0.022538334
195	0xbd023799	-0.031791303
196	0xbdc58a8a	-0.09645565
197	0x3d1c18cb	0.038109582
198	0xbbba8878	-0.005692538
199	0x3c4c5b4d	0.01247294
200	0xbd0839bd	-0.03325819
201	0x3c2bc608	0.010484226
202	0x3c5d5b59	0.0135105485
203	0xbcb56264	-0.022141643
204	0x3d880684	0.06641868
205	0x3dc23549	0.094828196
206	0xbcd9f54c	-0.026606224
207	0xbd3ffd5c	-0.04687248
208	0x3c5da6b1	0.013528512
209	0x3c4f0f4e	0.012637926
210	0x3d63fff6	0.055664025
211	0xbdabb69e	-0.08384441
212	0x3e319f2a	0.17345873
213	0x3e0b2943	0.13589959
214	0x3c29aa42	0.010355534
215	0xbdaae6e0	-0.08344817
216	0x3da79a3c	0.08183715
217	0x3d000f9d	0.03126489
218	0xbcd0d15b	-0.025490453
219	0xbe373cce	-0.17894289
220	0x3d86ed5e	0.06588243
221	0xbd4b087d	-0.049568642
222	0xbcc1f79b	-0.023677638
223	0xbe45d66e	-0.1932008
224	0xbb3d5c30	-0.002889406
225	0xbca0e5e3	-0.019640869
226	0x3c3718cd	0.011175347
227	0x3d047154	0.03233464
228	0xbc9a66cc	-0.018847845
229	0x3d9c62aa	0.07636006
230	0x3ab0fdf9	0.0013503424
231	0x3d6bc58a	0.057561435
232	0x3ba6b338	0.0050872825
233	0x3b369c56	0.002786418
234	0x3ba1fda7	0.004943568
235	0x3df8fa43	0.12157109
236	0xbe0f8438	-0.14015281
237	0x3e755182	0.23956874
238	0xbd1de25f	-0.038545962
239	0x3d913b4d	0.07091389
240	0xbd0e7637	-0.034780707
241	0xbcdff4ed	-0.02733847
242	0x3cb6519e	0.022255715
243	0xbdac429c	-0.08411142
244	0x3d936f11	0.071989186
245	0x3e1d1401	0.15339662
246	0xbd1e0174	-0.038575605
247	0xbdadc02d	-0.0848392
248	0x3c820c10	0.015874892
249	0xbd0aa7c3	-0.033851396
250	0x3dc0b07f	0.09408664
251	0x3b9237fe	0.004462241
252	0x3cd5c024	0.026092596
253	0x3c1b555b	0.0094808
254	0x3d910490	0.07080948
255	0x3ba5ce35	0.005059982

fc1.bias f4 [512]
0	0x3c8c0fb5	0.017097333
1	0x3cb09dbf	0.021559594
2	0xbc314a30	-0.01082091
3	0xbe028bea	-0.12748685
4	0xbd81ad04	-0.06331828
5	0x3cf3e7a4	0.02977354
6	0xbdca8fc8	-0.09890705
7	0x3e26c907	0.16287623
8	0xbd255ef1	-0.040373746
9	0xbd57ee9c	-0.05271779
10	0xbde425ef	-0.11140048
11	0x3dad63c5	0.08466295
12	0x3e3c3624	0.18380028
13	0x3dcb3fd0	0.09924281
14	0xbe5356d6	-0.20638594
15	0x3a0e7ecb	0.0005435764
16	0xbd19cf9b	-0.037551504
17	0xbd48c058	-0.04901156
18	0xbe473386	-0.19453248
19	0x3e4ea4f8	0.20180118
20	0x3e3038b0	0.17209125
21	0xbe0332c4	-0.12812334
22	0x3e02a70f	0.1275904
23	0xbc978e1d	-0.018500382
24	0x3e284611	0.16432978
25	0x3d079fca	0.03311137
26	0x3d99b0b0	0.075044036
27	0xbc8ba999	-0.017048644
28	0xbd2c1c92	-0.042019434
29	0xbe75c7cd	-0.24001999
30	0xbe0b0704	-0.13576895
31	0x3e2f9550	0.17146802
32	0x3e41f3dd	0.18940683
33	0x3e54efae	0.20794556
34	0x3ddb13f2	0.10697164
35	0xbe705f14	-0.2347377
36	0xbe020623	-0.12697653
37	0x3c4fc653	0.0126815615
38	0xbe4fedce	-0.20305559
39	0x3d2fbdc2	0.042905577
40	0x3d9fda13	0.07805266
41	0xbd8b78ad	-0.068101265
42	0x3c3d571a	0.011556411
43	0x3ca503f0	0.02014348
44	0xbe08a55e	-0.13344333
45	0x3c4fc79f	0.012681871
46	0x3d700682	0.058599956
47	0xbe2d9a70	-0.16953444
48	0x3e291e5f	0.16515492
49	0x3e40d8f9	0.18832768
50	0xbe43c949	-0.19119753
51	0xbd3d0738	-0.046149462
52	0x3d12eaf6	0.035868607
53	0xbcb3a689	-0.021929996
54	0xbd0dd5b8	-0.034627646
55	0xbc989346	-0.018624913
56	0x3d73e244	0.059541956
57	0x3d959be6	0.07305126
58	0x3de09276	0.10965435
59	0x3d202529	0.03909794
60	0x3dcaa011	0.098938115
61	0xbcbb7696	-0.022883695
62	0xbdc4beb7	-0.096066885
63	0x3d91ff64	0.0712879
64	0x3e655947	0.22397338
65	0x3c9f9a8f	0.019482879
66	0xbe36f657	-0.17867409
67	0x3d30b57c	0.043141827
68	0xbe28d5fa	-0.16487876
69	0x3dbe507d	0.09292696
70	0x3e4ba618	0.19887578
71	0xbe17fc1b	-0.14842264
72	0xbd8e9f75	-0.06964008
73	0x3e473ae3	0.19456057
74	0x3daae621	0.08344675
75	0x3e46477a	0.19363204
76	0xbdb3db5b	-0.08782073
77	0xbc0b7bb4	-0.00851338
78	0xbe18a731	-0.14907528
79	0xbd924ec2	-0.07143928
80	0x3d84f9f4	0.06492987
81	0x3e2d0184	0.1689511
82	0x3e4f848e	0.2026541
83	0xbdd73055	-0.105072655
84	0x3df34c1c	0.11879751
85	0xbe1c0f4e	-0.15240213
86	0xbe45e97d	-0.1932735
87	0xbb89f75b	-0.0042103953
88	0x3e5047fc	0.2033996
89	0x3dcac002	0.09899904
90	0xbe158741	-0.14602377
91	0x3c1ff161	0.009762139
92	0x3e573fa0	0.21020365
93	0x3e035153	0.12823991
94	0x3d44e658	0.048071235
95	0xbdd6a6fd	-0.10481069
96	0x3e1ff80a	0.15621963
97	0x3e1e37e2	0.15451005
98	0x3e06840d	0.13136311
99	0x3e2d04f2	0.16896418
100	0xbe129356	-0.14314017
101	0xbe91a2e7	-0.28444597
102	0x3e2545c5	0.16139896
103	0x3d1cf942	0.03832365
104	0x3cde7f78	0.027160391
105	0x3d7672fa	0.060168244
106	0xbe2966cb	-0.16543119
107	0xbe20867f	-0.15676306
108	0x3e0d4991	0.13797595
109	0xbb9aa40d	-0.0047192634
110	0xbe789b7c	-0.24278063
111	0xbd1572fd	-0.036486614
112	0x3b5448f1	0.003239211
113	0xbe1f29da	-0.15543309
114	0xbe37da32	-0.17954329
115	0xbd0e6de2	-0.03477276
116	0xbe3625d5	-0.1778787
117	0x3d513e15	0.051084597
118	0xbe251112	-0.16119793
119	0xbdc7695f	-0.09736895
120	0xbe1b0ed6	-0.15142378
121	0xbdafc308	-0.08582121
122	0xbe412503	-0.18861775
123	0xbde15e5a	-0.11004324
124	0xbe010d1b	-0.12602656
125	0x3def537e	0.11685847
126	0xbe329101	-0.17438127
127	0x3e36cefa	0.17852393
128	0x3e338a87	0.17533313
129	0x3ccb7e3a	0.024840463
130	0xbcc52bfb	-0.024068823
131	0xbdf49420	-0.11942315
132	0xbd8a2fc8	-0.06747395
133	0xbdcdfa54	-0.10057512
134	0x3c8f8d61	0.01752347
135	0x3e3e4486	0.18580827
136	0xbd7bd786	-0.061484836
137	0xbdcf5aaf	-0.101247184
138	0xbb0898d6	-0.002084305
139	0xbe4c77c2	-0.19967559
140	0xbd4ffbc6	-0.05077722
141	0xbdef5978	-0.11686987
142	0xbe16b797	-0.14718471
143	0xbd092000	-0.033477783
144	0x3e0b59cd	0.13608475
145	0x3d932025	0.071838655
146	0x3d9bdf88	0.076109946
147	0x3e31947d	0.173418
148	0x3e1f461d	0.1555409
149	0xbca85383	-0.020547634
150	0x3d2d2ed6	0.042280994
151	0xbd1f87bf	-0.038947817
152	0x3da96cf4	0.08272734
153	0x3d832a53	0.06404557
154	0x3dc87f1b	0.097898684
155	0xbdf76b8e	-0.12081061
156	0xbd284837	-0.041084494
157	0x3e0014d8	0.12507951
158	0x3ddff500	0.10935402
159	0x3d16ecbb	0.036846858
160	0xbdebb17b	-0.11508461
161	0x3dbf0517	0.09327143
162	0x3b8ab90c	0.004233485
163	0xbe1afaf3	-0.15134792
164	0xbe3468a5	-0.17618044
165	0x3b7c1dcc	0.0038469909
166	0xbe2803fa	-0.16407767
167	0x3d648abc	0.05579637
168	0x3c0d7c60	0.00863561
169	0xbd96d8fc	-0.07365605
170	0x3e3ef75f	0.18649052
171	0x3cdfa2a0	0.027299225
172	0x3b96290e	0.004582531
173	0x3e0c351a	0.13692132
174	0x3d2346f1	0.039862577
175	0x3c646e28	0.013942279
176	0x3e3ddcea	0.18541303
177	0xbe2f33c0	-0.17109585
178	0x3dd0b781	0.101912506
179	0x3cf14c20	0.029455245
180	0xbcf1e6ff	-0.029529093
181	0x3d463059	0.04838595
182	0x3a7bc750	0.000960459
183	0xbdf8a78e	-0.121413335
184	0xbe0c3f6e	-0.13696072
185	0xbdf46f2f	-0.11935269
186	0x3e2f4540	0.1711626
187	0x3e2d289f	0.16910027
188	0xbc1cafac	-0.009563368
189	0x3da89fc2	0.082335964
190	0x3dd05283	0.10171988
191	0x3e2062ac	0.1566264
192	0x3dd1296f	0.10212981
193	0x3e0c861d	0.13723035
194	0xbdb5835a	-0.08862944
195	0x3d65b0ae	0.056076698
196	0xbdc39e99	-0.095517345
197	0xbe3fdf20	-0.18737459
198	0xbd17c6eb	-0.037054937
199	0xbe2a2224	-0.16614586
200	0x3d853846	0.06504874
201	0x3e1dedb1	0.15422703
202	0x3d77b4b9	0.060475085
203	0xbe86b6bf	-0.263113
204	0x3d9de661	0.07709957
205	0x3e3f1a6e	0.18662426
206	0xbc0a7402	-0.00845051
207	0xbe30bff2	-0.17260721
208	0xbd57ef72	-0.052718587
209	0x3e5ab26f	0.2135713
210	0xbe133541	-0.14375784
211	0xbe37e1e0	-0.17957258
212	0x3e29b331	0.16572262
213	0x3e2de0b2	0.16980246
214	0x3cb81a95	0.022473613
215	0x3e47c203	0.19507603
216	0xbe41d68c	-0.189295
217	0x3e041ff2	0.12902811
218	0xbe381f7e	-0.17980763
219	0xbdab8b5a	-0.083761886
220	0x3e47ca0b	0.19510667
221	0xbdcc2da0	-0.0996964
222	0xbe413b38	-0.18870246
223	0x3d24a93f	0.04020047
224	0x3e47bfec	0.19506806
225	0xbdc96a02	-0.098346725
226	0xbe50a921	-0.20377018
227	0x3dd9b6e8	0.1063059
228	0x3e0df742	0.13863853
229	0xbdfe1f80	-0.12408352
230	0xbe1bff1e	-0.15234038
231	0x3e04f9be	0.12985894
232	0x3d817b4f	0.063223474
233	0xbe074a55	-0.13211949
234	0xbd39253c	-0.045201525
235	0x3d606faa	0.05479399
236	0x3d121e52	0.035673447
237	0x3e114ee9	0.14190258
238	0x3de0b313	0.10971656
239	0xba600f04	-0.00085471594
240	0x3e18759c	0.14888614
241	0xbe380584	-0.17970854
242	0x3d6fff04	0.05859281
243	0x3be42541	0.006962449
244	0xbe1c08fc	-0.15237802
245	0xbdabe6d7	-0.083936386
246	0xbda28e9c	-0.07937357
247	0xbe66d157	-0.22540794
248	0xbcb405e8	-0.021975473
249	0x3e447eae	0.1918895
250	0xbe463215	-0.19355042
251	0xbced58f3	-0.028973078
252	0xbe13cc7d	-0.14433475
253	0xbdbaf6c0	-0.09129095
254	0x3debc598	0.115122974
255	0xbe858af7	-0.26082584

fc2.weight f4 [256, 512]
0	0x3dd82786	0.105544135
1	0xbd450207	-0.048097637
2	0xbd4fbc65	-0.050716776
3	0x3dade036	0.084900305
4	0x3d81cb28	0.06337577
5	0xbd090e25	-0.033460755
6	0xbd2cbef0	-0.04217428
7	0xbba0c4d6	-0.004906277
8	0x3c2068fe	0.009790657
9	0xbde57e76	-0.11205761
10	0x3d2b05f7	0.041753735
11	0x3de84254	0.11340776
12	0x3c69a401	0.014260293
13	0x3ca98431	0.020692917
14	0xbd5fd49f	-0.05464613
15	0x3da5225c	0.08063194
16	0x3d622b1e	0.0552169
17	0x3d75684c	0.05991392
18	0x3c5eb964	0.013594005
19	0xbca183ef	-0.019716231
20	0xbe60866d	-0.2192628
21	0xbe6009dd	-0.21878763
22	0xbd70f05d	-0.05882298
23	0xbce1496d	-0.027500832
24	0x3e71710a	0.23578277
25	0xbd481a3b	-0.04885314
26	0xbc3eddab	-0.011649529
27	0xbd13e769	-0.03610936
28	0x3c8ba531	0.017046543
29	0xbd8204fc	-0.06348607
30	0x3d823b07	0.06358915
31	0xbdddc622	-0.108288065
32	0x3ce6cb00	0.02817297
33	0x3d68b37c	0.056811795
34	0x3d96f432	0.07370795
35	0xbb860b43	-0.004090698
36	0x3c895f75	0.01676915
37	0xbe0f8b98	-0.14018095
38	0xbe2bf47d	-0.16792484
39	0xbd6219c5	-0.055200357
40	0x3cd3f8cc	0.025875472
41	0xbd3bc99b	-0.045846563
42	0xbd94424e	-0.07239209
43	0x3d559223	0.05214132
44	0xbd48ceb2	-0.049025245
45	0xbb95d3e8	-0.0045723803
46	0x3cad4e32	0.02115545
47	0xbd1a669a	-0.037695505
48	0xbd9e7109	-0.077364035
49	0x3e09b192	0.13446644
50	0x3ba67781	0.005080164
51	0x3dc6ee19	0.09713382
52	0xbdd92c3a	-0.10604139
53	0x3d603c0f	0.054744776
54	0xbe10a590	-0.14125657
55	0x3c263b60	0.010145992
56	0x3d1e6dd5	0.038678963
57	0xbc998817	-0.01874165
58	0xbcc8ec5a	-0.024526764
59	0xbd640278	-0.055666417
60	0xbd48b32c	-0.048998997
61	0xbe5f5836	-0.21810994
62	0x3dec43b6	0.11536352
63	0x3c1c080b	0.009523402
64	0x3ccc608e	0.024948385
65	0x3da9315f	0.0826137
66	0x3d7b252f	0.061314758
67	0x3cb99f31	0.022658916
68	0x3d73e3f3	0.05954356
69	0xbe769546	-0.24080381
70	0xbca39076	-0.019966345
71	0xbdb3cfa7	-0.08779841
72	0x3d141f9f	0.03616297
73	0x3cc11edc	0.023574285
74	0xbcf3ea11	-0.029774697
75	0x3c928bfd	0.017889017
76	0xbd8343a2	-0.06409384
77	0x3d7ef1b8	0.06224224
78	0x3d792f2d	0.060836006
79	0xbd7d56ac	-0.061850235
80	0xbdc7fb60	-0.09764743
81	0x3cf335f4	0.029688813
82	0x3ce35558	0.027750656
83	0x3d8f373d	0.06992958
84	0xbbe41c64	-0.0069613922
85	0xbd926395	-0.071479
86	0xbdae535f	-0.085119955
87	0x3dc047f0	0.09388721
88	0xbdc54e40	-0.09634066
89	0xbcda2acf	-0.02663174
90	0x3c8608b1	0.016361566
91	0xbd0ad361	-0.033892993
92	0x3d0f5d91	0.03500134
93	0xbd8c20d1	-0.06842197
94	0xbe27c13a	-0.16382304
95	0xbe3cd273	-0.18439655
96	0x3e00e23d	0.12586303
97	0x3db33c39	0.08751721
98	0xbd98f10d	-0.07467852
99	0xbdf8315f	-0.12118792
100	0xbc4cb88f	-0.012495174
101	0x3cf3a692	0.029742513
102	0xbcd5505a	-0.026039291
103	0x3e0003ad	0.12501402
104	0xbe17714a	-0.1478931
105	0x3d0a2574	0.033727124
106	0x3d0362cc	0.032076642
107	0x3d8dcc78	0.06923765
108	0xbd38a68a	-0.0450807
109	0x3c238fb6	0.009982994
110	0xbd51b9c5	-0.051202554
111	0xbc9f4e96	-0.019446652
112	0xbba19895	-0.0049315193
113	0x3cfae27b	0.030625572
114	0x3d0f8bd1	0.03504545
115	0x3dad64eb	0.08466514
116	0x3c56b6eb	0.0131051345
117	0x3dac34a0	0.08408475
118	0x3d6dbe99	0.058043096
119	0xbd852214	-0.065006405
120	0xbdb76dcd	-0.0895649
121	0xbd9ffdf6	-0.07812111
122	0x3d796356	0.06088575
123	0x3c843519	0.0161386
124	0xbc610b75	-0.013735642
125	0xbd631beb	-0.055446547
126	0xbc29cacf	-0.010363295
127	0x3db9628f	0.09052002
128	0xbbf3e2e9	-0.0074428213
129	0x3d529b7e	0.05141782
130	0x3d290426	0.041263722
131	0xbce6bc8f	-0.028166084
132	0xbd79d1f1	-0.06099123
133	0xbe0f0312	-0.13966015
134	0x3c6c5439	0.014424377
135	0xbd17a390	-0.03702122
136	0xbde68b44	-0.112570316
137	0xbd851fb9	-0.06500191
138	0xbd985f6b	-0.074400745
139	0xbd2dc9e9	-0.042428885
140	0x3df58963	0.11989095
141	0xbda6ac3b	-0.08138319
142	0xbd74094d	-0.059579182
143	0xbda2096f	-0.079119556
144	0xbc7a7d06	-0.015288597
145	0x3b858046	0.0040741293
146	0x3cd52978	0.02602075
147	0x3b9455f2	0.004526847
148	0xbd8c490f	-0.06849872
149	0xbe3189b5	-0.17337687
150	0xbdf6ab74	-0.12044421
151	0x3c8ea2ee	0.017411675
152	0xbd7f24ac	-0.062290832
153	0xbcde0f17	-0.027106805
154	0xbddbabae	-0.10726105
155	0xbda6b2d7	-0.0813958
156	0xbda655f8	-0.08121866
157	0xbe2b2184	-0.16712004
158	0xbc524e7b	-0.012836094
159	0xbd24ad22	-0.040204175
160	0x3d63ac92	0.055584498
161	0x3d1200a4	0.035645142
162	0xbe099d10	-0.13438821
163	0x3e44a7dc	0.19204658
164	0xbdf59f5f	-0.11993288
165	0xbd039852	-0.032127686
166	0x3d56163a	0.05226729
167	0x3ce3f572	0.027826998
168	0x3d689b20	0.056788564
169	0xbbfd40a5	-0.0077286535
170	0xbcfb0fa3	-0.030647105
171	0xbe2090d6	-0.1568025
172	0xbe093f38	-0.13403022
173	0xbd1f0e1b	-0.03883181
174	0x3d3bc8ca	0.045845784
175	0xbd323305	-0.043505687
176	0xbce0b7df	-0.027431427
177	0xbdb9d1de	-0.09073232
178	0xbdf2e63d	-0.11860321
179	0xbe25cf44	-0.16192347
180	0x3d4acf0b	0.049513858
181	0x3d17a3b2	0.037021346
182	0x3ddbc0f4	0.10730162
183	0xbdd7846a	-0.10523303
184	0xbe7f010a	-0.2490274
185	0x3d4d4713	0.05011661
186	0x3da72d76	0.08162968
187	0xbd6af4ea	-0.057362475
188	0xbd2d4b38	-0.042308062
189	0x3d7d634e	0.061862282
190	0x3c374170	0.011185035
191	0x3d4c039b	0.049808126
192	0xbc317c8e	-0.010832919
193	0x3cfee81a	0.031116534
194	0xbdd0d30a	-0.101965025
195	0xbd91b03b	-0.071136914
196	0xbd234df3	-0.03986926
197	0xbd1946ea	-0.037421145
198	0xbe16ec73	-0.14738636
199	0xbb58ab80	-0.0033061206
200	0x3daa88f2	0.083269015
201	0x3d8cab48	0.06868607
202	0x3d44f542	0.04808546
203	0xbd93a3f1	-0.07209004
204	0x3d71f13e	0.059067957
205	0x3c65b1da	0.014019454
206	0x3d6b57d7	0.057456817
207	0xbda1089d	-0.07862971
208	0xbd2cabf1	-0.042156164
209	0x3c6bd9d6	0.014395198
210	0xbd3c33e6	-0.04594793
211	0xbd459179	-0.048234437
212	0x3d2d7ed5	0.042357285
213	0xbdd12bf6	-0.10213463
214	0x3d0eb2eb	0.0348386
215	0xbb587873	-0.0033030778
216	0x3da80548	0.08204132
217	0x3d141036	0.036148272
218	0x3deecb96	0.11659925
219	0x3e04497d	0.12918659
220	0xbd7faac7	-0.062418725
221	0x3d5f55d4	0.05452521
222	0xbbbdb74f	-0.0057896744
223	0xbc2297d4	-0.009923894
224	0x3c402684	0.011727933
225	0xba4d402c	-0.0007829692
226	0xbd4ae7ad	-0.04953735
227	0xbda9cac1	-0.08290625
228	0xbc892983	-0.016743427
229	0xbc941d21	-0.018080296
230	0xbdc14d32	-0.09438552
231	0x3dafc393	0.08582225
232	0x3cdf2054	0.027237095
233	0xbc25368c	-0.010083806
234	0xbc87ada6	-0.016562294
235	0xbd7ebcef	-0.0621919
236	0x3bf8460d	0.00757671
237	0xbd74c208	-0.059755355
238	0xbd94c2bb	-0.072637044
239	0x3d8b1cf9	0.067926355
240	0x3bf192b8	0.0073722266
241	0x3d4ef070	0.050522268
242	0xbd00c884	-0.031441227
243	0xbdb3ce47	-0.08779579
244	0x3c5eb466	0.013592815
245	0x3de624ed	0.11237512
246	0xbd0adf19	-0.03390417
247	0x3ccef7c7	0.025264634
248	0xbd56c147	-0.052430417
249	0x3d385a62	0.04500807
250	0x3d83664b	0.06415995
251	0xbba498ca	-0.0050230967
252	0xbd7fbed0	-0.062437832
253	0xbe2c635f	-0.16834782
254	0xbcff18ed	-0.031139815
255	0xbe063b09	-0.13108458

fc2.bias f4 [256]
0	0x3d340de2	0.043958552
1	0x3cbb38e3	0.022854274
2	0xbdaacfed	-0.0834044
3	0xbd6887a5	-0.056769986
4	0xbd0a4ddb	-0.033765655
5	0xbcb8b87d	-0.022548908
6	0xbd764630	-0.06012553
7	0x3c800029	0.015625076
8	0x3c1e86c5	0.009675686
9	0x3d57d31f	0.052691575
10	0xbdbe9552	-0.09305824
11	0xbab05986	-0.0013454414
12	0x3bca8f1d	0.006181611
13	0xbb2db204	-0.002650381
14	0x3c082a5a	0.008310879
15	0xbd41d21e	-0.047319524
16	0x3c7cb5f6	0.015424242
17	0xbcf9cd72	-0.030493472
18	0x3af90821	0.0018999615
19	0x3b6b930f	0.0035945808
20	0x3c044692	0.008073466
21	0xbd83aa1e	-0.06428932
22	0xbd00a76a	-0.03140966
23	0x3a57a80f	0.0008226642
24	0xbcdd0d05	-0.026983747
25	0x3d428bfd	0.047496784
26	0xbd06d181	-0.032914642
27	0xbc5a7708	-0.013334043
28	0xbd2e282f	-0.04251879
29	0x3ca0aa8c	0.019612573
30	0xbd2a49ec	-0.041574404
31	0x3c2581c8	0.010101743
32	0xbc629130	-0.013828561
33	0xbb1b6bba	-0.0023715333
34	0x3d84506a	0.0646065
35	0xbc020d72	-0.007937776
36	0x3b449acf	0.00299995
37	0xbd8a1926	-0.06743078
38	0x3c66e8cf	0.014093592
39	0x3cc115c4	0.023569949
40	0x3caf5de2	0.021407072
41	0xbc5bf7f8	-0.01342582
42	0x3caf3942	0.021389607
43	0xbd5a4f73	-0.053298425
44	0x3cd8a82c	0.026447378
45	0xbd0116f0	-0.031516016
46	0xbb96d507	-0.0046030316
47	0x3ce3c316	0.027802985
48	0x3c1b78c8	0.009489246
49	0xbd9feb03	-0.07808497
50	0x3d7dfe0c	0.062009856
51	0xbd8c2868	-0.068436444
52	0xbd52fbf1	-0.0515098
53	0xbdf0e503	-0.117624305
54	0xbcdb2561	-0.026751222
55	0xbc946b60	-0.018117607
56	0xbc2d4a93	-0.010576862
57	0xbc846868	-0.016163066
58	0x3b670b8a	0.003525468
59	0x3c94e2aa	0.018174488
60	0xbd2ce3d3	-0.042209458
61	0x3d83f75f	0.06443667
62	0xbbe69753	-0.007037082
63	0xbc1c2645	-0.009530609
64	0xbb75fdc8	-0.0037535299
65	0xbae85d84	-0.0017728065
66	0xbbedd502	-0.0072580585
67	0xbcb62ddf	-0.02223867
68	0x3ba1ead2	0.004941323
69	0x3c920648	0.01782526
70	0xbc1a5388	-0.009419329
71	0x3cc3db4b	0.023908278
72	0x3cc26068	0.02372761
73	0xbcd3343a	-0.02578174
74	0x3c241bbe	0.01001638
75	0xbc6a5860	-0.014303297
76	0xbd9ad40e	-0.075599775
77	0xbc05d3ad	-0.008168143
78	0xbc9a4c70	-0.018835276
79	0xbc85f7a6	-0.01635344
80	0xbcff1c24	-0.031141348
81	0xbd231af7	-0.039820638
82	0x3c9a6475	0.01884673
83	0xbc0fe814	-0.008783359
84	0x3d621140	0.055192232
85	0x3d8f32d3	0.06992116
86	0xbd1223d3	-0.035678696
87	0x3cb1994a	0.02167954
88	0xbcf55c67	-0.029951287
89	0x3bc0e07d	0.005886136
90	0xbcac50f6	-0.021034699
91	0xbd05204a	-0.032501496
92	0xbbbc65e3	-0.0057494505
93	0xbd88fb25	-0.06688527
94	0x3d260fde	0.040542476
95	0x3cc3ec28	0.023916319
96	0x3c370943	0.011171642
97	0xbce09986	-0.027416956
98	0xbd09aab6	-0.03361007
99	0xbd30705a	-0.043075897
100	0x3cfc9633	0.03083334
101	0x3c8be3c8	0.017076388
102	0x3c7b70a4	0.01534668
103	0xbd7d81a8	-0.061891228
104	0x3c9e3313	0.019311463
105	0x3bc7027d	0.0060732947
106	0x3d7aab22	0.06119836
107	0xbd22dda2	-0.039762147
108	0x3d1002ef	0.035159048
109	0xbd047819	-0.032341097
110	0xbb008750	-0.0019611903
111	0x3bdb71b7	0.0066969055
112	0xbcc98b5a	-0.02460258
113	0x3d2d717c	0.042344555
114	0x3c814fac	0.01578506
115	0xbccd51a1	-0.025063338
116	0xbc3aaa92	-0.011393206
117	0xbcf4bb6f	-0.029874532
118	0x3c00a1fd	0.007851121
119	0x39700a39	0.00022891992
120	0xbc79395c	-0.015211429
121	0x3c0dcbc2	0.008654537
122	0xbcd83762	-0.026393596
123	0x3d06860f	0.032842692
124	0xbbc9771f	-0.0061482335
125	0xbcee4902	-0.029087547
126	0xbce91bd9	-0.028455662
127	0x3d1594b5	0.03651877
128	0x3d34e032	0.04415912
129	0xbd7b1c2b	-0.06130616
130	0x3d1aeb48	0.037822038
131	0x3d7cd1c6	0.061723493
132	0xbdb60e75	-0.08889476
133	0x3d31c1b6	0.043397628
134	0xbd6ce302	-0.05783368
135	0xbbefbdaf	-0.007316313
136	0xbd8acc26	-0.067772195
137	0xbd143e86	-0.03619244
138	0x3ce7fbb7	0.02831827
139	0xbd35613a	-0.044282176
140	0xbd160966	-0.036630057
141	0x3d3e3bd9	0.046443794
142	0xbd126235	-0.03573819
143	0xbdaadb54	-0.08342615
144	0xbd0f9b9a	-0.035060503
145	0xbc2ce435	-0.010552456
146	0x3bb4a1e9	0.0055124653
147	0xbd5cf9fa	-0.053949334
148	0xbcd407bf	-0.0258826
149	0x3cc3ecd3	0.023916638
150	0xbd76d547	-0.06026199
151	0xbd3f7006	-0.046737693
152	0xbc6559cb	-0.013998459
153	0x3d8188de	0.063249335
154	0xbd41432c	-0.0471832
155	0xbbcd1962	-0.0062591294
156	0xbd0d972a	-0.03456799
157	0xbc240733	-0.010011482
158	0x3d1913a1	0.037372235
159	0x3cbd8895	0.023136416
160	0xbc8258a0	-0.0159114
161	0x3d26cd85	0.040723342
162	0x3d1e969b	0.038717847
163	0x3d0d0f23	0.034438264
164	0x3c2d326b	0.010571103
165	0x3d0e5ed3	0.0347584
166	0x3ae092fa	0.0017133646
167	0x3b00fb26	0.0019680946
168	0xbb22fe5d	-0.002487085
169	0xbcec32cb	-0.028832814
170	0x3ccc121e	0.024910983
171	0xbc849635	-0.016184906
172	0xbda7b6e3	-0.0818918
173	0xbd0cd90d	-0.034386683
174	0x3ccca7f7	0.024982436
175	0x3a3beaa9	0.0007168451
176	0xbd15c1cc	-0.036561772
177	0xbd59f4cc	-0.053211972
178	0x3d025ec0	0.031828642
179	0xbb986ff7	-0.004652019
180	0xbd04b314	-0.032397345
181	0x3bb13bc6	0.005408737
182	0xbd753c1c	-0.059871778
183	0x3ce78d0a	0.028265495
184	0xbd2c5235	-0.042070586
185	0xbcc38183	-0.023865467
186	0xbcb67981	-0.022274734
187	0xbba91cfd	-0.0051609264
188	0x3da402d3	0.08008351
189	0x3c12a173	0.008949625
190	0x3bd4c9c4	0.006493779
191	0xbc948cc6	-0.018133532
192	0x3bc3619c	0.0059625637
193	0xbc915092	-0.017738614
194	0xbd0b59af	-0.034021076
195	0x3d915dfd	0.07098005
196	0x3d177e4f	0.03698569
197	0xbcddfe23	-0.02709872
198	0x3cf0fee3	0.029418414
199	0xbcf28241	-0.029603126
200	0xbc9c6bec	-0.01909443
201	0xbd0b8333	-0.03406067
202	0xbc1d5f88	-0.009605296
203	0x3cc8f10a	0.024528999
204	0x3d012214	0.03152664
205	0xbd52aeb6	-0.05143615
206	0xbd969a72	-0.07353677
207	0x3c532d12	0.012889164
208	0xbd264117	-0.04058942
209	0x3d522eaa	0.051314034
210	0x3beb9aeb	0.0071900985
211	0x3beb9f71	0.0071906378
212	0x3bb578ec	0.0055380967
213	0xbd0a49e2	-0.033761866
214	0x3bf55689	0.0074871224
215	0xbcb25958	-0.021771118
216	0x3d4a77b2	0.049430557
217	0xbcb28605	-0.021792421
218	0xbc7d87b2	-0.015474247
219	0x3c7de062	0.015495392
220	0xbd2494f4	-0.040181115
221	0x3ce93e35	0.028472045
222	0x3d074311	0.033022944
223	0x3b299b9a	0.00258801
224	0x3cf648a6	0.030063938
225	0xbc8c99ae	-0.017163124
226	0xbd350668	-0.044195563
227	0xbd14a2c1	-0.036288027
228	0xbe00b43b	-0.12568752
229	0x3d5c4a12	0.053781576
230	0x3d232d53	0.039838146
231	0xbd90c21a	-0.07068272
232	0xbc58554d	-0.013203931
233	0xbc908ccf	-0.017645268
234	0xbd844586	-0.06458573
235	0x3cd9e5f1	0.026598902
236	0xbd0af2b2	-0.03392286
237	0xbc6b5261	-0.014362902
238	0x3d4787b6	0.04871341
239	0xbd181d32	-0.037137218
240	0x3c1cef4b	0.009578536
241	0xbc966082	-0.018356565
242	0x3d1c5363	0.03816546
243	0x3c489b78	0.012244098
244	0x3d0241a0	0.031800866
245	0xbc51b6e0	-0.012799948
246	0x3d0c6a6b	0.034281176
247	0x3cadc301	0.02121115
248	0x3d7c835a	0.061648704
249	0xbaaaa232	-0.0013018309
250	0xbc7c7027	-0.015407599
251	0xbc8d139a	-0.01722126
252	0x3d25662e	0.04038065
253	0xbca8b31e	-0.020593222
254	0xbd088d96	-0.033338152
255	0x3c09e65d	0.008416739

fc3.weight f4 [2, 256]
0	0x3cad9222	0.021187846
1	0xbe8db6eb	-0.27678618
2	0x3db682f4	0.08911696
3	0x3dcb57a9	0.09928829
4	0x3e10f7ff	0.14157103
5	0x3cc4a016	0.024002116
6	0x3d83d538	0.064371526
7	0x3a30d8df	0.00067461835
8	0x3e2d02c2	0.16895583
9	0xbe2a9528	-0.16658461
10	0x3d4a4608	0.049383193
11	0x3d8f3443	0.0699239
12	0xbe26ebb2	-0.16300848
13	0x3dfc09c5	0.12306551
14	0xbd9678b8	-0.07347244
15	0x3d4ac4cc	0.049504086
16	0x3b13bb4a	0.0022542053
17	0x3d30b117	0.043137636
18	0x3dc51a12	0.09624113
19	0x3b6ab9d0	0.003581632
20	0xbdd072c5	-0.101781406
21	0x3de6c6a1	0.11268354
22	0xbf0d1ae8	-0.5511918
23	0x3bbd8110	0.0057832077
24	0xbe874824	-0.26422226
25	0x3da45ad0	0.080251336
26	0x3d8cd49b	0.06876489
27	0x3c9477b9	0.018123494
28	0x3cdfa2f1	0.027299376
29	0x3d4a3aee	0.049372606
30	0x3decff80	0.1157217
31	0xbe59ebcf	-0.2128136
32	0xbec2e5ca	-0.3806594
33	0x3cd92e17	0.026511235
34	0x3e65b6e9	0.22433056
35	0xbe16839f	-0.14698647
36	0x3e2974f6	0.16548523
37	0xbe18a84f	-0.14907955
38	0xbd3d1b32	-0.046168514
39	0xbdba3610	-0.09092343
40	0xbe5ee185	-0.21765716
41	0x3d83e603	0.06440356
42	0xbf0505b3	-0.5196182
43	0xbd01d35d	-0.031695712
44	0xbef85050	-0.48498774
45	0xbe12e5d7	-0.1434549
46	0x3d82c209	0.063846655
47	0xbe20e844	-0.15713602
48	0xbe445a61	-0.19175102
49	0x3ddbfa4e	0.10741101
50	0x3c8db41e	0.0172978
51	0x3d0899f9	0.033349965
52	0xbda5cfa5	-0.08096246
53	0x3d7f2842	0.062294252
54	0xbe0f09ee	-0.13968632
55	0x3ccc65a3	0.024950808
56	0xbc2f6117	-0.0107043
57	0xbcb4cf87	-0.022071613
58	0x3d0cbb9c	0.034358606
59	0x3d85b9fa	0.06529613
60	0x3e46e93c	0.1942491
61	0xbdb35326	-0.08756094
62	0xbd83ed57	-0.06441753
63	0x3dc8e721	0.09809709
64	0x3e824ebe	0.254507
65	0x3d72b62c	0.059255764
66	0xbe2e3ef2	-0.17016199
67	0xbea40bef	-0.32040355
68	0x3de0ccc2	0.109765545
69	0xbddc64d7	-0.10761421
70	0xbe38cec6	-0.18047628
71	0x3d909f4d	0.07061634
72	0xbc483826	-0.012220418
73	0x3d7ce271	0.06173939
74	0xbcc37f9b	-0.023864558
75	0x3e8cbf9d	0.2748994
76	0x3d4189c0	0.04725051
77	0xbe4d1624	-0.20027977
78	0x3e436f9f	0.19085549
79	0xbde911c8	-0.11380345
80	0x3c37a3ad	0.011208457
81	0x3f28f40d	0.6599739
82	0x3d0b3b2b	0.033991974
83	0xbd7879e2	-0.06066311
84	0x3d1203ad	0.035648037
85	0xbc37e471	-0.011223898
86	0x3e028929	0.12747635
87	0x3d8cf10f	0.06881916
88	0xbcf21c3d	-0.02955448
89	0xbde4c4ec	-0.11170372
90	0x3b4dbceb	0.0031393121
91	0x3cef2f0e	0.029197242
92	0x3d823535	0.06357805
93	0x3f04704a	0.5173384
94	0xbc44c08a	-0.0120087955
95	0xbec4b7d5	-0.38421503
96	0x3f17dfa0	0.593256
97	0x3c47dcde	0.012198655
98	0xb95a21fe	-0.00020802763
99	0xbd20191b	-0.039086442
100	0xbc7d945a	-0.015477264
101	0xbc3e1098	-0.011600636
102	0x3da4148d	0.08011732
103	0x3d80e084	0.06292823
104	0xbed79c9b	-0.42111668
105	0xbd39e7e1	-0.045387153
106	0xbd779c48	-0.060451776
107	0x3d1d9333	0.03847046
108	0x3c45d454	0.012074549
109	0x3d635f28	0.05551067
110	0x3dafe834	0.08589211
111	0x3dd582aa	0.10425313
112	0xbdbfb844	-0.09361318
113	0xbc4f45c7	-0.012650914
114	0x3d9c3e81	0.07629109
115	0x3b7fa4dc	0.0039008176
116	0xbdcab904	-0.0989857
117	0xbee84705	-0.45366684
118	0x3cf936fb	0.030421725
119	0x3d600b92	0.054698534
120	0x3e6506aa	0.22365823
121	0x3de88656	0.113537475
122	0xbcf65078	-0.030067667
123	0x3c5cb082	0.013469817
124	0x3d50aa06	0.050943397
125	0x3dc2fe24	0.0952113
126	0x3eb0b424	0.34512436
127	0x3f2ab194	0.6667721
128	0x3c16e92a	0.009210864
129	0xbe59b2fe	-0.21259686
130	0x3dd62a13	0.10457244
131	0xbca85e7e	-0.02055287
132	0xbddc3dd6	-0.10753982
133	0xbaedcffd	-0.001814365
134	0x3d07f26c	0.033190176
135	0x3d607295	0.054796774
136	0xbb1b02a9	-0.0023652709
137	0xbe38c441	-0.18043615
138	0xbe4876a7	-0.19576512
139	0x3d6a3af1	0.057185117
140	0xbd3e9c36	-0.046535693
141	0xbe382dc7	-0.17986213
142	0x3e968816	0.294007
143	0xbdf35764	-0.11881903
144	0x3e21e491	0.15809847
145	0xbe530693	-0.20607977
146	0xbbeeaf80	-0.007284105
147	0x3e235f24	0.15954262
148	0xbc9cf5d8	-0.019160196
149	0x3dd04acb	0.101705156
150	0xbe2f7f52	-0.17138413
151	0x3d4c7e69	0.04992524
152	0x3e0ddad4	0.13853008
153	0xbc4a7883	-0.012357834
154	0x3d459d63	0.0482458
155	0x3e90e277	0.2829778
156	0xbd4f4f86	-0.05061295
157	0x3dc171ca	0.09445532
158	0xbcd0a982	-0.025471453
159	0xbca01824	-0.019542761
160	0xbd222578	-0.039586514
161	0xbc9e6faf	-0.019340364
162	0xbb33aaee	-0.0027415114
163	0xba5ff725	-0.00085436023
164	0x3d12270f	0.03568178
165	0x3d2c4abf	0.04206347
166	0xbcd6212a	-0.02613886
167	0xbd2fd9c0	-0.042932272
168	0x3d6b212b	0.05740468
169	0xbcf1f7b2	-0.029537056
170	0xbd082871	-0.033241693
171	0x3d13ff7d	0.036132324
172	0x3ec60bbb	0.38680825
173	0xbd16e5c3	-0.03684021
174	0xbe8b0907	-0.27155325
175	0xbdac41f5	-0.08411018
176	0x3d016fe8	0.031600863
177	0x3d960e68	0.073269665
178	0xbd428e4f	-0.047498997
179	0xbb970d98	-0.004609775
180	0x3b9a927e	0.0047171703
181	0xbd822d4b	-0.06356295
182	0x3ce52cc7	0.027975453
183	0xbdf9c0bf	-0.121949665
184	0x3dbdff7f	0.09277248
185	0xbe64097f	-0.22269247
186	0x3cd0b17e	0.02547526
187	0x3c1a2e8b	0.009410511
188	0xbdffba77	-0.12486737
189	0xbcddc826	-0.027072977
190	0x3db19121	0.08670259
191	0xbcca7d7c	-0.024718039
192	0xbd9bf434	-0.076149374
193	0x3f059701	0.5218354
194	0xbccf6130	-0.025314897
195	0xbdb26894	-0.08711353
196	0xbd4050a3	-0.0469519
197	0xbe82f142	-0.2557469
198	0xbcec966c	-0.02888032
199	0x3d479224	0.048723355
200	0xbc031492	-0.00800051
201	0x3dd41b33	0.1035675
202	0xbe33f4d0	-0.17573857
203	0xbd9acc5f	-0.07558512
204	0xbbc9fe37	-0.006164338
205	0xbcc82c27	-0.024435116
206	0x3d0e1681	0.03468943
207	0xbe5de373	-0.21668796
208	0xbe110bbe	-0.14164636
209	0xbefc1b1c	-0.49239433
210	0xbcce30da	-0.025169779
211	0xbde493ad	-0.111609794
212	0xbdea5736	-0.114424154
213	0x3bfa6893	0.0076418607
214	0x3dc3bd1d	0.09557555
215	0xbeca3f44	-0.39501393
216	0x3d20746b	0.039173525
217	0x3aac26d3	0.0013134129
218	0x3ccfae54	0.02535168
219	0x3dab1f77	0.08355611
220	0xbedcd84c	-0.4313377
221	0xbb2c91b7	-0.002633197
222	0x3ce5e4ce	0.028063204
223	0xbf0d7552	-0.5525714
224	0x3d9da326	0.07697134
225	0x3daf3978	0.08555883
226	0x3dd068ac	0.101762146
227	0xbc42d542	-0.011891665
228	0x3bd14fe7	0.006387699
229	0xbe0aabbf	-0.13542078
230	0xbd577f33	-0.05261154
231	0x3e982cf6	0.29721802
232	0x3d1b763f	0.037954565
233	0x3e0b12bb	0.13581364
234	0x3c43603c	0.0119247995
235	0xbc6dabf8	-0.014506333
236	0xbcf08cdb	-0.02936404
237	0x3df64f57	0.120268516
238	0xbc59b0e0	-0.013286799
239	0x3e116402	0.14198306
240	0x3cc28e74	0.023749568
241	0x3d435a08	0.047693282
242	0x3d91690b	0.071001135
243	0xbd2490a2	-0.040176995
244	0x3ddf0c6d	0.10891042
245	0x3d321ec1	0.04348636
246	0xbda6bbc9	-0.08141286
247	0xbd0192c8	-0.031634122
248	0xbdaee2b3	-0.08539333
249	0xbcd274c1	-0.025690438
250	0x3c853cf5	0.016264418
251	0xbde39612	-0.11112608
252	0xbef263f1	-0.47341874
253	0x3ea4fd60	0.3222456
254	0xbd643a1f	-0.05571949
255	0xbc096fb2	-0.008388447

fc3.bias f4 [2]
0	0x3d378833	0.044807624
1	0xbccef178	-0.025261626
