ddpg_critic_B.pth (torch_old, 580710 bytes, 5 tensors)

fcs1.weight f4 [512, 24]
000000 7e 16 21 3d 5e 61 bc 3d 78 04 c3 3c 54 69 ee bc
       0.03932809 0.09198259 0.023805842 -0.029102959
000010 e1 f4 b7 bd a7 5d 55 be 5d 5e 8f bc 65 38 54 bd
       -0.08982254 -0.20836507 -0.01750105 -0.051811595
000020 da f3 e5 bb 5f 48 b9 3d cf 93 ed 3a 5a 49 44 bd
       -0.0070175948 0.09047007 0.0018125715 -0.047921516
000030 a0 eb 57 bd 0b 44 10 be f9 8d be 3c c0 6e fe ba
       -0.052714944 -0.14088456 0.023261057 -0.0019411668
000040 d4 fd 22 bd 05 19 9d 3d 96 d7 83 bc 0c 15 10 3d
       -0.03979285 0.07670788 -0.01609401 0.035176322
000050 e5 e8 18 3d f5 a6 20 bf e9 ca ff 3a 3f 50 bb 3d
       0.03733148 -0.62754756 0.0019515428 0.09146165
000060 c3 63 53 3b 97 cc 83 bd 2d 90 6d bd 5a 37 c9 3d
       0.0032255508 -0.06435507 -0.057998825 0.098250106
000070 f0 38 45 3d fd 69 97 3d 54 75 93 3c 6f 4e 31 3d
       0.048150003 0.073932625 0.018000282 0.04328769
000080 58 0e b3 bc 4b d2 0c bd 5c 00 36 bd 76 ae 49 3d
       -0.021857426 -0.03438024 -0.044433936 0.049238645
000090 43 d1 b8 3d 91 b2 7c bd 25 9e 67 3c 82 1a 13 3c
       0.090242885 -0.06169373 0.014136826 0.008978488
0000a0 49 20 67 3d 9a f5 e0 bb 09 8f a3 bd ac ce 3b be
       0.056427274 -0.0068652155 -0.07986266 -0.18340558
0000b0 c1 cb bd 3d db f7 ab bd ad c3 ae bd 09 ea 83 be
       0.092673786 -0.08396884 -0.08533416 -0.25764492
0000c0 19 3a da bc 01 04 c7 bd 0d 83 c2 3b 11 7c 02 be
       -0.026639031 -0.097175606 0.0059360326 -0.1274264
0000d0 ca 1c 35 bd 8c d9 b5 bd f0 67 b4 bb 03 4e 00 be
       -0.04421691 -0.088793844 -0.0055055544 -0.12529759
0000e0 9b b5 d3 bb 51 5a ea bc 40 56 26 bd 2d 42 c2 3c
       -0.006460858 -0.02860752 -0.0406096 0.023713196
0000f0 5c 5b f4 3d c8 98 d7 bd 8c 43 07 3d 1d 2d d4 3c
       0.11931488 -0.105271876 0.033023402 0.025900418
000100 8b 9e 6d bd 63 0a d2 bd 64 45 ac 3c 2f 40 d9 bc
       -0.058012526 -0.10255887 0.021029182 -0.026519863
000110 e7 d9 96 3e ae 7a bd be 21 20 92 bc c7 f8 f2 bc
       0.2946312 -0.3700766 -0.017837586 -0.029659642
000120 a6 12 63 bc 32 9a a7 3d c8 70 0c 3d 9a a3 a6 bb
       -0.013859427 0.08183707 0.034287244 -0.005085421
000130 71 3e ad 3c 56 9d cb 3d a7 f5 0c 3d c9 0f c4 3c
       0.021147938 0.09942119 0.03441396 0.023933308
000140 c8 92 8d 3d 1d da a5 3d 30 48 33 3d 84 74 5b bd
       0.06912762 0.080982424 0.043770015 -0.053577915
000150 c5 13 b6 3d ac d8 44 3d f6 84 69 3c b3 ee 1b bd
       0.088904895 0.048058197 0.014252892 -0.03806944
000160 73 71 e3 3d 82 f4 3a 3c 83 18 3a bd 3d eb a8 3b
       0.11105623 0.011410834 -0.045433532 0.0051549957
000170 30 1d 0a be da 49 90 be af fd 55 bd b0 c8 f4 3c
       -0.13487697 -0.28181344 -0.052243885 0.029880852
000180 65 d5 8a 3c 5e 21 fe 3c 5b 5b 46 3c b4 49 87 bd
       0.016947458 0.03102177 0.012106742 -0.06605855
000190 29 6a 6f 3c 07 84 cf bd b6 bf 02 bd 18 b7 47 bc
       0.014612713 -0.10132604 -0.03192111 -0.012189649
0001a0 b9 6f 57 3d 02 66 eb 3b b9 1b 57 3d 36 ef de bb
       0.05259678 0.007183791 0.052516673 -0.0068034185
0001b0 93 43 4f 3d 1d 0b 0f 3e 10 f5 20 3d fe 87 ba 3a
       0.050601553 0.13969083 0.03929621 0.0014231203
0001c0 4c d0 a3 3d ea 47 17 3d 11 d7 fa bc 2a 40 25 bd
       0.07998714 0.036933817 -0.03062013 -0.040344395
0001d0 74 e4 06 bc 68 d0 89 3e 8f c6 f9 bc d7 21 7a bd
       -0.008233178 0.26916814 -0.030490188 -0.06106743
0001e0 a2 49 5c 3c 1e e9 90 3e a4 e3 47 bd a3 7c bc bb
       0.01344529 0.28302854 -0.04880108 -0.0057521625
0001f0 96 61 1c 3d 9e 95 15 be 2e b5 5b bd 2c 7a 31 bc
       0.038179003 -0.14607856 -0.053639583 -0.010832351
000200 2b 92 fe 3d 0c 26 74 3e e6 66 78 bc 11 16 08 bd
       0.12430223 0.23842639 -0.015161252 -0.03322417
000210 bb e5 c1 3d f3 a9 53 be 2f 7e dd ba 1e ed 18 bd
       0.09467646 -0.20670299 -0.0016898568 -0.037335508
000220 e5 32 80 3d 39 32 5b 3e 8e 36 09 bc ab 5e 7c bd
       0.06259707 0.21405877 -0.008374823 -0.06161372
000230 57 0d 18 3e d8 47 4b be a5 c0 a1 bb 30 88 c5 bd
       0.14848839 -0.19851625 -0.004936295 -0.09645116
000240 11 83 8a 3b 42 f7 b5 bd 13 92 45 3c c5 34 42 3c
       0.00422705 -0.08885051 0.012058753 0.011853402
000250 3b 2f 37 3d 8f b0 94 be 67 40 ba 3c a2 55 5a 3d
       0.044722777 -0.29040954 0.022735788 0.053304322
000260 5e 77 f8 3c a9 c9 b1 bd 9b 57 46 bd ca 22 9a 3d
       0.030330356 -0.08681042 -0.04842339 0.07526167
000270 a0 e8 cc 3d 6c 91 47 be 01 a3 bf 3c e8 67 dc 3d
       0.10005307 -0.19489068 0.023393156 0.10762006
000280 f9 53 bf 3d 01 ff a4 bd a4 7c 8a 3b f0 6f bf 3b
       0.093421884 -0.08056451 0.004226284 0.0058422014
000290 29 6c 17 bd b9 c2 9d be b6 36 0e 3d 57 0f b9 bc
       -0.036968384 -0.30812624 0.034720145 -0.022590322
0002a0 cb 8e 57 3d 0f 31 5e 3d dd f2 7b ba 98 b5 73 bd
       0.052626412 0.054246005 -0.00096110796 -0.059499353
0002b0 d5 61 1b be 56 2c 11 3e 71 de 98 bc 9b 4a 3e bd
       -0.15174039 0.14177069 -0.018660756 -0.046457868
0002c0 a5 10 84 3d c5 8f 21 bd d8 35 21 bd 9e 2e 8b bc
       0.06448487 -0.03944375 -0.03935799 -0.016990002
0002d0 c3 c0 8f bc ad 9c 17 3e dd 55 4e bc ae cd 5d 3d
       -0.01754797 0.14805861 -0.012593714 0.05415123
0002e0 c1 b0 a4 3d a5 9a 89 bd 63 55 18 bd de c0 61 bd
       0.08041526 -0.06718949 -0.037190806 -0.055115573
0002f0 43 81 60 3e 1e b4 bf 3d 0f 76 b4 3c 54 f5 40 bc
       0.2192431 0.093605265 0.022028951 -0.011777241
000300 9e 29 87 3d fc 98 78 3c 32 d0 99 bd 05 b1 ab bd
       0.06599735 0.015173193 -0.07510413 -0.08383373
000310 24 60 ed 3d 0c bd 86 bd 33 8a 28 bd 9a 04 b0 bd
       0.11590603 -0.065790266 -0.041147422 -0.08594628
000320 8b 6e 82 3c 47 b5 b0 bc 66 6b bb 3a 21 3e 6d 3b
       0.015921852 -0.021570815 0.0014298975 0.0036200362
000330 17 ba 56 3c c7 e6 96 bd 7a 8a 0a bd 0f 50 9f bd
       0.013105891 -0.07368236 -0.033823468 -0.07778942
000340 41 e4 08 3e 07 ba a1 bb c1 dd 50 3d cf ea cf bd
       0.13368322 -0.0049355063 0.05099273 -0.10152208
000350 ee 98 d1 3c 5c 38 73 be ab e2 2d 3d 39 9a b9 bd
       0.025585618 -0.23751968 0.042452496 -0.09062619
000360 d8 6e 75 bb 53 f6 80 bd 50 80 be 3c c3 0a 53 bd
       -0.0037450101 -0.062969826 0.023254544 -0.051523935
000370 64 ee f3 bd ed 7d 02 3e e1 98 c5 bc fb ef 05 bd
       -0.11910704 0.1274335 -0.02412075 -0.032699566
000380 87 c2 ef bc 1c 9f 21 3c 12 a8 20 3c f5 0b 61 3d
       -0.029267563 0.009864595 0.009805696 0.054943044
000390 cb 9c 79 bc 43 85 a3 bc 88 9c 64 bc fc 8d dc b8
       -0.015235136 -0.019961005 -0.013953336 -0.00010516864
0003a0 d8 b6 64 bd f0 ef 83 bd eb 77 2c 3b cf 59 09 bd
       -0.055838436 -0.06442249 0.0026316594 -0.033532914
0003b0 6e 29 55 3e f2 14 1a be 51 66 5f bc 66 d8 b8 bc
       0.20816585 -0.15047053 -0.013635234 -0.022564124
0003c0 66 01 67 bc b1 0f 8f 3e df 6d db 3c 7e 1d 09 3d
       -0.0140994545 0.2794166 0.026785789 0.03347539
0003d0 ee 7b d4 3c 98 0b 18 be cc 46 29 bd b4 0f 80 bc
       0.025938 -0.14848173 -0.041327283 -0.015632488
0003e0 d4 2a 68 bc 59 9e 8a 3e c2 a9 1c 3c cb 68 c4 bc
       -0.014170367 0.27073935 0.009561958 -0.02397575
0003f0 54 33 a9 3c 16 3d 26 be d0 40 4b 3d 51 ec 84 bd
       0.020654358 -0.1623424 0.049622357 -0.06490386

fcs1.bias f4 [512]
000000 54 41 2a bd 1c 98 17 3d dc 6f 40 3d 7d 2d f5 bd
       -0.041566208 0.037010297 0.046981677 -0.11971567
000010 55 1b 0a be cb c8 fc bd 27 5d 08 be 93 9a 94 3e
       -0.13486989 -0.12342986 -0.13316785 0.2902418
000020 b0 f5 23 be fb 15 97 bc f2 3b 4d be be b6 41 3d
       -0.16011691 -0.018443098 -0.20042399 0.047293417
000030 14 98 5c 3e 28 09 bc 3d e1 3e 8a be 08 cc e7 bc
       0.21542388 0.09181434 -0.27001098 -0.028295532
000040 17 22 97 bd 49 96 f8 bd 7b 34 4c be 9c 68 47 3e
       -0.07379549 -0.121380396 -0.19941895 0.19473499
000050 86 38 7e 3e 33 bd 75 be 37 40 06 3e 88 03 7d bc
       0.2482625 -0.23997955 0.13110434 -0.015442736
000060 29 23 50 3e da 8f 67 bc 86 8e d3 3d 04 9a 75 bd
       0.20325913 -0.014133418 0.103299186 -0.059961334
000070 24 cd ee bd 68 3d 9b be 1a 0c 7e be 46 ff 61 3e
       -0.11660221 -0.30320287 -0.24809304 0.22070035
000080 4f 65 0c 3e 08 77 12 3e 5e 6c f4 3d 4d bf 71 be
       0.13710521 0.1430322 0.11934732 -0.23608132
000090 0e 52 6b be a5 7f 4a 3d a3 f4 6b be d7 47 90 3c
       -0.2298052 0.049438138 -0.2304254 0.01761238
0000a0 3f 79 a4 bd c5 87 a4 3b a8 db d3 bd 6f 18 9c 38
       -0.08030938 0.005021068 -0.103446305 7.443211e-05
0000b0 5a b1 10 be d4 12 36 3e dc 5a 56 bc 4f 03 77 be
       -0.14130154 0.1778062 -0.013083186 -0.24122356
0000c0 42 22 9a 3c 2e 07 6a 3e 51 42 76 be ac 82 23 be
       0.018815164 0.22854301 -0.24048735 -0.15967816
0000d0 e2 83 56 bc 46 a9 af bd 81 71 d0 bd f7 32 06 be
       -0.013092967 -0.08577208 -0.10177899 -0.13105379
0000e0 1b fa 28 bc 18 72 78 3d bb 5a 4c 3d 88 62 20 bb
       -0.010313536 0.060655683 0.049891215 -0.0024472792
0000f0 e0 3a 7f bc ae ac 37 bd d2 f6 f9 bd 01 0d 64 3d
       -0.015578002 -0.044842415 -0.1220528 0.055676464
000100 2a bb ce 3d cb 0b e7 bd cd ac b8 be 69 bf 2d 3c
       0.100942925 -0.11281546 -0.36069337 0.010604718
000110 6d cd 75 be 7c 2b 0d 3e 1a ad 26 3e df 3a 72 be
       -0.24004145 0.13786119 0.1627697 -0.2365527
000120 da a8 21 bd 42 ae 28 3e 08 9a d6 3d 03 f3 31 3e
       -0.03946767 0.16472724 0.10478598 0.17377858
000130 8c 81 b9 bd 26 8b 1f bd 22 e1 0e be a8 3a 5e be
       -0.09057912 -0.03895106 -0.13953069 -0.21702063
000140 48 a8 9b bc d1 ee 05 3e 93 07 52 3e fa b4 be bd
       -0.019001141 0.13079382 0.20510702 -0.09311862
000150 c2 84 97 3e 55 68 71 be 60 48 65 be 6e c4 5f 3d
       0.29593474 -0.23574956 -0.2239089 0.05463069
000160 14 97 41 3e 7d b7 db 3d c1 07 88 be 9b 5c 6d be
       0.18905288 0.10728357 -0.26568416 -0.23179857
000170 63 fa 43 3e b3 7b 80 3d 9f a6 77 3c 4b 84 64 bd
       0.19138484 0.06273594 0.015115409 -0.055790227
000180 e9 19 55 3e af ca 3f 3e 89 1d f6 bb 21 61 13 3d
       0.20810665 0.18729661 -0.007510845 0.0359813
000190 bd 58 3a be 7f e6 72 be 55 af 1d 3e 66 47 86 3d
       -0.18197913 -0.2372074 0.15398915 0.06556587
0001a0 58 08 1c 3d be eb 88 3c ea 4f ee bd 64 a3 1a be
       0.038093895 0.016713973 -0.11636336 -0.15101391
0001b0 c4 3c 81 3d 5e b0 4d bd 84 63 4d be 18 33 0f be
       0.06310418 -0.050217025 -0.20057493 -0.13984334
0001c0 e2 ad 38 be 23 8c f6 bd 77 f3 6e be fa 14 c8 bd
       -0.18035081 -0.12038448 -0.23335062 -0.09769626
0001d0 e5 6f e5 bd 92 91 8c 3d eb 6f 6f be 56 64 5e bd
       -0.11202983 0.06863703 -0.23382537 -0.054294907
0001e0 9a 2b 93 be 89 bf 99 be dd fd 67 be d2 c7 f1 bd
       -0.28744203 -0.30028942 -0.22655435 -0.11805691
0001f0 66 eb 49 be c4 5f 29 3e 8f f2 ac be 4a 97 57 3e
       -0.19718704 0.16540438 -0.33778808 0.21053806
000200 67 70 51 3e b8 10 7e 3d 86 27 72 be 7d 37 80 be
       0.20453034 0.062027663 -0.2364789 -0.25042334
000210 0b 77 0f be 4f 3d 57 be c7 eb 3b 3d 3b 8b 34 3e
       -0.14010255 -0.21019481 0.04587915 0.17631237
000220 8e aa 05 be 26 72 40 be f7 38 2c bd 55 f2 45 be
       -0.13053343 -0.18793544 -0.042046513 -0.19330724
000230 cb ed 1e be ed 7c 40 be 73 34 7a be 20 0c db bd
       -0.15520398 -0.18797655 -0.2443407 -0.10695672
000240 fd db 3d 3e 96 52 8f bb b6 36 21 bd 59 cf fc 3d
       0.1854095 -0.0043738587 -0.039358817 0.12344236
000250 0c ca dd 3d 15 a8 23 bd 01 df a5 3c 99 f4 f6 bd
       0.10829553 -0.039955217 0.020247938 -0.12058372
000260 3f 86 14 bd 7b 1f 0c 3d b4 c3 7b 3d 52 40 51 be
       -0.03626084 0.03420971 0.061465934 -0.20434693
000270 10 1b 1d bd 0a 32 4e bd 2d ea 48 3d fa e1 6d bd
       -0.038355887 -0.05034069 0.049051452 -0.058076836
000280 06 28 04 be 4b bf f1 3d e3 2b 58 be a6 ca 8b bd
       -0.12905893 0.11804064 -0.21110491 -0.068257615
000290 e8 2b 12 be cb 19 b7 3c d0 ae 85 be ce 89 df 3c
       -0.14274561 0.022351166 -0.26109934 0.02728739
0002a0 74 8f d7 bc 95 f1 ff bd 00 4f e6 3d 3d 0e 51 bd
       -0.026313521 -0.1249725 0.11245537 -0.05103897
0002b0 20 c4 c2 bd 78 72 22 3e ec 09 46 3d ce 65 f5 bd
       -0.09510064 0.15863979 0.048349306 -0.11982308
0002c0 03 e9 33 3e 94 ea 71 be 66 40 27 bc e7 bf 3c 3b
       0.17569356 -0.2362464 -0.010208225 0.0028800906
0002d0 a8 a1 03 bd c5 98 02 be 8c 1d 02 bd ed a5 7e be
       -0.03213659 -0.1275359 -0.03176646 -0.24867983
0002e0 51 4a 30 be a4 fb 11 be c4 3a 2a 3e 44 9b d7 3d
       -0.1721585 -0.1425615 0.1662398 0.105276614
0002f0 42 32 04 3e e7 dc 93 3d a4 50 c0 3d fc 00 74 3e
       0.12909797 0.07219868 0.09390381 0.238285
000300 63 32 7a bd e9 b2 57 3e fc 3a 08 be dd de ee 3b
       -0.06108321 0.21064343 -0.13303751 0.007289751
000310 5b 00 20 be 12 8c be be 94 3c 99 bd 12 cd 1b be
       -0.15625136 -0.3721624 -0.074822575 -0.15214947
000320 49 9a 3d 3d 91 84 ea 3c 29 84 a0 3c 94 19 3e be
       0.046289716 0.028627666 0.019594269 -0.18564445
000330 84 86 97 3d 15 c5 e4 3d b8 d4 32 3c fd 62 83 be
       0.07398704 0.11170403 0.010914974 -0.2566146
000340 46 dd 82 bd 8a 2d 43 3e 9d fb 33 be 96 1b 2f be
       -0.06389861 0.1906034 -0.17576452 -0.17100367
000350 4e a1 35 3e 17 cb 29 3e d5 5f 87 3d df ab 26 3e
       0.17737314 0.16581379 0.066100754 0.16276501
000360 61 cb 8c be f2 b7 9d 3d 8e 96 72 be 25 58 eb bd
       -0.27498916 0.077011004 -0.23690245 -0.114914216
000370 49 f6 0d 3e 26 49 79 bd 1d 7d ab bd 07 df 2a 3c
       0.13863482 -0.060860775 -0.08373473 0.01042915
000380 45 85 03 3e 2b 07 18 be 43 39 3e be 18 64 0b 3e
       0.12843807 -0.14846484 -0.18576531 0.13612401
000390 5e 39 3b 3e 58 04 2e be 00 66 77 bd ad 83 03 3e
       0.18283603 -0.16993845 -0.06040001 0.12843199
0003a0 4f c8 c7 bb d9 67 31 be c7 97 0f bc ec 5c f7 bd
       -0.0060968767 -0.17324771 -0.008764214 -0.1207827
0003b0 c4 ab 86 bd 2d 06 ea 3d 13 3e cd 3d 20 6a 41 3d
       -0.065757304 0.11426959 0.10021605 0.04722035
0003c0 0a c9 dd 3d 08 71 8d be 9f b9 0f 3d 06 8a 51 bd
       0.10829361 -0.27625299 0.03508913 -0.05115702
0003d0 8c 9f 5b be 40 b7 53 bd 11 33 b9 bd e4 83 bf be
       -0.21447581 -0.051688433 -0.09042943 -0.37405312
0003e0 89 b6 87 bc a4 a7 74 3e 6c d9 a4 be bf e2 74 bd
       -0.016566532 0.23892075 -0.3219713 -0.059786554
0003f0 fe d5 79 bd 3f db f4 bd d2 c2 27 3d bb 2a ad be
       -0.060995094 -0.119558804 0.04095728 -0.33821663

fc2.weight f4 [256, 514]
000000 5a 3d 47 bd c1 e3 81 bd 53 69 01 3d 7d 02 1e 3d
       -0.048642494 -0.06342269 0.031594586 0.03857659
000010 f6 65 da bc 6d db e5 3c 48 f7 5a bd 7b 77 5d bd
       -0.026659947 0.028058732 -0.053458482 -0.054069024
000020 19 94 3f bc d8 56 76 39 c9 9a 1b 3d 4d d4 a9 3b
       -0.011693024 0.0002349274 0.03798941 0.005182779
000030 29 11 95 bd 3b 40 2d bc a9 ee e7 bd 64 2f e3 3c
       -0.07278664 -0.010574396 -0.11324818 0.027732559
000040 02 1b e4 bb d6 66 4d bc 37 e9 09 bd 0f f0 dd 3b
       -0.0069612274 -0.012536725 -0.033669677 0.006773002
000050 10 be 70 bd 10 3f 34 3d 2a 59 08 be b8 8b 33 3d
       -0.058775008 0.044005454 -0.13315263 0.043834418
000060 1a 1f e3 3c c2 88 5e 3b 4d cf 2a bd f5 93 21 bd
       0.027724791 0.0033956026 -0.041701604 -0.039447743
000070 8e cf 83 bd 76 8a 0e bd 42 3d fa bc e9 63 23 bd
       -0.06436072 -0.034800015 -0.030546788 -0.039890204
000080 7e 36 56 bc c2 7b cf bb ed 51 01 3d 42 53 11 3d
       -0.013074515 -0.0063318918 0.03157227 0.03547979
000090 36 41 3d 3d 56 6a 40 bd 0a 63 7b bd 41 7d 4d bd
       0.046204768 -0.04697641 -0.061373748 -0.05016828
0000a0 cc de 29 bd d2 89 d6 3b 55 ab f1 bc 10 e5 ae bb
       -0.04147224 0.006547191 -0.029500643 -0.005337365
0000b0 40 11 79 be 0f f2 e2 3c ac 7f a9 bc 72 42 e0 bd
       -0.24322987 0.027703313 -0.020690762 -0.109501734
0000c0 fd 8b af 3c 02 47 a5 bd f0 3b 6f be 1e 5d 4e bc
       0.021429056 -0.08070184 -0.23362708 -0.012595443
0000d0 1c 55 02 3d e4 f6 7a bc 16 fc 2f bc be 58 93 bd
       0.031819448 -0.015317652 -0.010741254 -0.071946606
0000e0 75 92 33 bc a0 62 bb bc f7 7b 9f bd 0e 1c 86 3d
       -0.010960211 -0.022874177 -0.07787316 0.0654832
0000f0 65 3a db 3c e7 39 5f bd 81 bf 10 bd 51 7c 0c bd
       0.026761243 -0.05449858 -0.035338882 -0.034298245
000100 ea 64 1d 3d 8a 48 c6 3c 10 2f 98 3c 7d 24 45 be
       0.038426317 0.024204511 0.018577129 -0.192522
000110 b6 73 25 bb c2 d7 2e 3d 67 5e 22 3b 92 d1 52 3d
       -0.002524597 0.04268623 0.0024775506 0.051469393
000120 50 70 6f bd f7 e8 73 bc d0 53 3d bd 92 17 67 bc
       -0.05845672 -0.014887086 -0.046222508 -0.014104741
000130 bf c4 57 bd 87 a1 d2 3c be 05 00 bd dc 29 ca bd
       -0.052677866 0.025711788 -0.031255476 -0.09871265
000140 62 d5 f6 bc 5d dc 49 bb 02 f4 81 bd 87 34 cc bc
       -0.030131046 -0.0030801513 -0.06345369 -0.02492739
000150 ee 5b 22 bd fd 43 06 3d 9e b3 31 bd 99 49 ab bd
       -0.039638452 0.032779682 -0.043384187 -0.08363647
000160 31 db 47 bd e9 24 41 bd 72 ce 10 bc 58 26 55 bd
       -0.04879302 -0.04715434 -0.008838283 -0.05203852
000170 9e 57 0d bd 76 ee 9d bd a5 93 70 bc ff 6f 83 3c
       -0.034507386 -0.077114984 -0.014683639 0.016044615
000180 0f ba 42 3d 5b 0d d5 bc c6 51 fd bc c5 9a 85 bd
       0.04754072 -0.026007345 -0.030922782 -0.065236606
000190 2e e2 a8 bd 86 60 d6 bb b5 09 b8 bd 27 a8 b7 bd
       -0.08246265 -0.006542268 -0.089862265 -0.089676194
0001a0 24 94 1d bd 72 cc 8f bd fb 6c 2b 3d bd 80 59 bd
       -0.038471356 -0.07021417 0.04185198 -0.05310129
0001b0 c7 66 24 3d f7 52 76 bc ad 20 28 bd ee da ad 3c
       0.04013708 -0.015034429 -0.041046787 0.021222558
0001c0 a7 7a 6a bc 67 90 8f bd 58 42 30 3d d5 6a c6 3c
       -0.014311469 -0.070099644 0.04303202 0.024220863
0001d0 18 5c 39 bc 03 09 3a bd b1 e5 0f 3b a8 88 34 3d
       -0.011313461 -0.04541875 0.0021956975 0.044075638
0001e0 52 0a 85 3c 93 28 dd bc 60 a7 04 3d 79 98 8a bd
       0.016240273 -0.026996886 0.032386184 -0.06767363
0001f0 9b 66 ae bc 6d d3 e3 3c ae 66 7c 3c 03 42 9d bd
       -0.02128916 0.027810777 0.01540534 -0.07678606
000200 64 ae f1 3c bf 53 c2 bc 29 8f 67 bd 01 01 7e bc
       0.029502101 -0.023721574 -0.056533013 -0.015503169
000210 23 96 0e bd 0e be 36 3d 56 00 7c 3c 50 52 19 bd
       -0.03481115 0.044614844 0.0153809395 -0.037432015
000220 73 1d 82 bc bc 69 2d bd b3 35 d4 3c 48 f7 2d bd
       -0.015883183 -0.042337164 0.025904512 -0.042472154
000230 6d 6f 5b 3c 85 43 3b bd 78 a3 ae bc 26 d8 32 3d
       0.013393265 -0.04571869 -0.021318182 0.043663166
000240 2b f4 05 3d 00 b7 23 3d 98 81 ba bd ff 57 a8 bc
       0.03270356 0.039969444 -0.09106749 -0.020549772
000250 72 f7 13 3d 01 26 40 3d 3b 75 08 3c ff 68 66 bd
       0.036124654 0.046911243 0.008328731 -0.056252476
000260 11 a8 95 bc 2c 42 44 3c 40 f7 5c 3c 1c 7e 74 bc
       -0.018268617 0.011978667 0.013486683 -0.014922645
000270 bc 27 45 bd f2 d8 4c bb e3 76 4b bd d7 42 ce bc
       -0.048133597 -0.003125724 -0.049673926 -0.025178356
000280 f1 89 82 3c f3 44 ac bb b0 46 8c 3c af be 8d 3c
       0.015934916 -0.005257243 0.01712355 0.01730284
000290 82 50 04 3d 84 3b c6 3c 57 27 7b 3d 6a d8 a0 bc
       0.03230334 0.024198301 0.061316814 -0.019634444
0002a0 14 a2 c0 bd 24 86 06 3d 19 3f 36 3d cb fe 26 3d
       -0.09405914 0.03284277 0.04449377 0.040770333
0002b0 63 a8 f5 bc b7 24 73 bb 4a 97 e4 3c cc 28 0a be
       -0.02998752 -0.0037100741 0.027904171 -0.13492125
0002c0 0a ec 76 bd 8e 2a f1 bc 41 1a 64 3c bb ff cf 3c
       -0.0602837 -0.029439237 0.013922275 0.025390496
0002d0 48 33 5c bc 6d cd ba bc 2e c8 9a bb 3c 70 26 bd
       -0.013439961 -0.022803033 -0.0047235703 -0.04063438
0002e0 cc 11 be bd 98 58 4e 3d a2 8a 85 3c 7f 02 66 bc
       -0.09280738 0.05037746 0.016301457 -0.014038681
0002f0 74 56 4e 3b a1 dc e7 bc 3e 5c 8c 3c d6 6e 14 3d
       0.0031484636 -0.028303446 0.017133828 0.036238514
000300 f7 93 98 bd 2d a2 bb bc 91 d5 33 3d 94 6e ff 39
       -0.07450097 -0.02290448 0.043904845 0.00048719777
000310 24 4b 1b bd 58 86 af bc 5a 06 4c 3c 82 15 7e bc
       -0.037913457 -0.021426365 0.012452686 -0.015508058
000320 ab a4 e8 bc e8 16 ea 3c 22 b6 32 3d 88 fa 8d 3d
       -0.028398832 0.028575376 0.043630727 0.06932551
000330 87 94 3b 3c 9b 4c 1c 3d b4 d5 78 bd c0 b5 21 bc
       0.011448986 0.038158994 -0.06075068 -0.009869993
000340 f0 48 6d bd 0e 09 16 3a 92 8c 01 be c6 7a 18 bd
       -0.057930887 0.0005723395 -0.1265128 -0.03722646
000350 51 c2 67 3d 68 64 0e 3d 39 5a 42 bb 14 0a 84 bd
       0.0565818 0.034763724 -0.0029655828 -0.06447235
000360 81 02 9c bd e4 33 24 3c 5c df f6 3c 8e bb 14 bd
       -0.07617665 0.010022137 0.030135803 -0.03631168
000370 5c 55 7e bd 92 8f 1f bb a7 22 c2 bc 2f b4 8c bd
       -0.062093124 -0.002434705 -0.023698164 -0.06870305
000380 1a 56 45 bd 59 59 9d bd 79 61 de bd 00 1e 24 bc
       -0.048177816 -0.07683057 -0.10858435 -0.010016918
000390 cd b6 09 3d 2d dd 02 3d 43 36 67 bd 49 64 4a 3d
       0.033621598 0.03194921 -0.056448232 0.049412046
0003a0 b4 32 5b be cc 70 8a bd 37 9c 53 bd 59 36 29 ba
       -0.2140606 -0.067597955 -0.05166265 -0.0006454937
0003b0 8b f5 8f 3c 1b 73 6c bd 13 00 2a bd bd 05 2b bd
       0.017573139 -0.05772696 -0.041503977 -0.04175352
0003c0 e8 11 ec bc 8d 86 9c bc 8e 91 00 3d a7 7d dd bd
       -0.028817132 -0.019107128 0.03138881 -0.10814982
0003d0 97 da ad bd 5e fb bd bb a0 e0 66 bd 71 13 4c bd
       -0.08488958 -0.0057977876 -0.056366563 -0.04982323
0003e0 aa cc a3 bd 5e fb 10 3c fa 17 17 3d 87 83 ed bc
       -0.07998021 0.008848993 0.0368881 -0.028993381
0003f0 f0 f4 72 bc 00 27 f8 bd 27 5f 48 3b 5c 35 3d 3d
       -0.014828905 -0.12116814 0.0030574293 0.046193466

fc2.bias f4 [256]
000000 af 92 62 bd d7 bb 48 bd 53 9b 5f 3e e3 95 82 bd
       -0.05531567 -0.049007263 0.21836595 -0.06376245
000010 ca 67 c3 3d cc d9 19 bd df ee fd bd 9d 2a f8 3d
       0.095412806 -0.037561223 -0.12399077 0.12117503
000020 6e 4a dd bd 9b 33 fe bc 5b b6 53 bd 07 8c 8b 3c
       -0.10805212 -0.031030467 -0.05168758 0.017034544
000030 1c 60 a0 bc db 52 c3 bc 0f 0c 36 bc c9 9d 75 bc
       -0.019577079 -0.02384322 -0.011111273 -0.014991232
000040 52 1f fa 3d 83 12 b8 bd ae fa 3a bd 27 26 01 be
       0.12213005 -0.08987906 -0.045649223 -0.1261221
000050 26 1f e9 bd 5b 1a b3 bd a1 a4 ac bd 0e 6a ed bd
       -0.11382894 -0.08745261 -0.08429838 -0.11592494
000060 fc 3a b9 bc ab 02 04 3e d5 cd 7a bd 26 39 cd 3b
       -0.022611134 0.12891643 -0.061231453 0.006262916
000070 5c b4 fd 3c 17 8a 26 bc 3f 2a f9 3d be f0 61 bb
       0.030969791 -0.010164759 0.12166261 -0.003447577
000080 21 73 2e bd df 12 00 3d f2 c1 31 bd 6f 39 78 bd
       -0.042590264 0.031267997 -0.04339785 -0.060601648
000090 00 02 38 bc 19 bc 24 3d ac f0 89 bc e3 7f 34 3d
       -0.011230946 0.040218446 -0.016838394 0.044067275
0000a0 26 d0 5b bd 9e 81 2a 3e a4 57 70 bd ea 2d 12 3c
       -0.053665303 0.16651008 -0.05867733 0.00892208
0000b0 58 3d 14 bd 1b fa 13 be 41 b7 f5 bd e8 eb 1f 3d
       -0.036191314 -0.14450876 -0.119978435 0.039043337
0000c0 92 f7 e3 bd 92 9c 5e bd 77 f9 97 bc f4 58 25 3c
       -0.11131205 -0.054348536 -0.018551571 0.010092009
0000d0 7a 53 06 bd f7 0a e5 3b 3c 57 62 bc 9a b3 50 3d
       -0.032794453 0.0069898325 -0.013814744 0.05095253
0000e0 d4 76 af bd cf 3f 48 bd 4b 4f 40 bb fc 4a 37 3d
       -0.085675865 -0.048888978 -0.0029344137 0.044749245
0000f0 d2 cb c3 bc 4d b9 4f 3d 06 4f e3 bc 8a 54 df bc
       -0.0239009 0.050713826 -0.027747642 -0.027261991
000100 4d c1 56 bd 8c c6 84 bd 25 01 3a 3d a8 c3 fa bd
       -0.05243044 -0.06483182 0.045411248 -0.1224435
000110 90 7c 92 bd c1 39 98 bd 5b 3b ad bd e2 9d 8e bd
       -0.07152665 -0.07432891 -0.08458587 -0.069637075
000120 50 83 a3 bd c7 7f b3 bb 2a 69 3d bc a0 e7 b8 bc
       -0.0798403 -0.0054778787 -0.011560718 -0.022571385
000130 63 77 c3 3c fe 41 26 bd 19 95 90 bd 10 bb 47 3d
       0.023860639 -0.04059028 -0.07059688 0.04876238
000140 fa 58 10 3d 51 d2 57 bd 72 03 56 bd f1 fd fb b9
       0.035241105 -0.052690808 -0.05224938 -0.00048063652
000150 95 81 1d bd c2 56 e7 3d 9d bb 37 bd 40 c2 9f bd
       -0.038453657 0.112958446 -0.044856656 -0.07800722
000160 b6 5a da 3c a8 13 fb 3d cb 92 88 bc 1a 7a 0d 3d
       0.026654582 0.122596085 -0.016671559 0.034540273
000170 40 67 89 3d d6 30 59 bc 0e a3 cb bc d4 c9 66 bd
       0.067091465 -0.013256272 -0.024858024 -0.056344822
000180 4a 9a 9b 3b ea 35 6e 3c 07 36 25 3d e7 dd dd bd
       0.0047486173 0.014539221 0.040334728 -0.1083334
000190 89 1f bb 3c ab 0b 92 bd 06 31 ee bd a0 48 a7 bd
       0.022842186 -0.07131132 -0.11630444 -0.08168149
0001a0 66 ac 0e bd 73 4b 9b 3c fa 0a a3 bc 61 2f d2 3d
       -0.03483238 0.018956875 -0.019902695 0.10262943
0001b0 8f a5 e1 bd ea f7 71 bd 35 8f 39 3d 45 c1 83 3d
       -0.11017906 -0.05907432 0.04530259 0.064333476
0001c0 11 1f 87 bd 54 95 cd bc f6 de 47 bc 43 5c 97 3c
       -0.06597722 -0.02509562 -0.012199154 0.018476611
0001d0 6e 40 1b 3e b6 8f 44 bc c0 02 c4 3c 1a 6a 9c 3c
       0.15161297 -0.011997154 0.023927093 0.019093562
0001e0 a1 e0 66 3c e4 e1 12 be 9a f2 b2 ba 90 ab 1d 3e
       0.014091642 -0.14343983 -0.0013652623 0.15397477
0001f0 7c c6 a7 bd 9e 4e 02 3c c2 32 d4 bd 17 11 8a bd
       -0.08192155 0.007953314 -0.10361244 -0.06741541
000200 d0 aa 0a 3c b4 48 53 bd 48 54 87 3c 42 82 08 bd
       0.008463576 -0.051583007 0.01651968 -0.03332735
000210 29 57 f4 bb 9c 2b 2b be 2e 4a d8 3c 5a d4 a9 3b
       -0.0074566794 -0.16715854 0.02640256 0.005182785
000220 1c 96 4c 3d 39 77 88 ba 88 98 32 3c 80 7b 7a bd
       0.049947843 -0.0010411508 0.010900624 -0.061152935
000230 6d 52 ae 3c 07 2b a1 3c 83 4d 04 bd a4 b9 d0 bc
       0.021279538 0.019673837 -0.032300483 -0.025479145
000240 b7 33 bc bc 7f 1e 18 bd c9 8f b2 3c d7 35 43 bc
       -0.022973878 -0.03713846 0.021797078 -0.011914692
000250 23 ab c5 bd 45 25 18 3d 3a 67 1c be 77 1f 43 bc
       -0.09651782 0.037144918 -0.15273753 -0.011909357
000260 ce cf 4d 3d 53 1c 1b bd c0 ec 00 3d df bb 54 bd
       0.050247006 -0.03786881 0.031475782 -0.05193698
000270 f4 a0 c8 bc ba 2b 15 bd b6 32 7c bd 62 90 a3 bc
       -0.02449081 -0.036418654 -0.0615718 -0.019966308
000280 72 b5 95 bd 36 0f 18 bc 8f b8 5a 3d e9 85 a4 bd
       -0.073099986 -0.00928097 0.053398665 -0.08033354
000290 5d e4 65 bd a7 2c 9b bd b9 e6 a0 bd 18 a7 fd bc
       -0.056125987 -0.07576876 -0.07856507 -0.030963466
0002a0 13 af e1 3d f9 89 fd 3c 80 e8 65 bd f9 65 67 bb
       0.11019721 0.03094958 -0.056129932 -0.0035308583
0002b0 54 6c 27 3e d0 3c 58 bd cf eb 11 be 5a 6f 96 3c
       0.16349918 -0.05279237 -0.1425011 0.018363643
0002c0 07 72 58 3d 10 16 a7 bc 2d 1e 15 be 4b 6c 44 bc
       0.05284312 -0.020396262 -0.14562292 -0.01198871
0002d0 eb d7 1b 3c 17 a5 c2 bd 37 c2 92 3d f9 e5 63 bd
       0.009511928 -0.09504145 0.0716595 -0.05563924
0002e0 5f 16 b7 bb 8b 32 8c bd fa 4a b6 bd 3a 78 45 bc
       -0.0055873836 -0.06845578 -0.089010194 -0.01205259
0002f0 9a ab 2c 3c bd 56 44 3c 52 63 64 bc 37 82 94 bd
       0.01053896 0.011983571 -0.013939695 -0.07251399
000300 f1 fd f7 3b d1 a8 30 bd ea 6e 25 bd 75 73 83 bd
       0.007568114 -0.043129746 -0.04038898 -0.06418506
000310 84 cf 05 3c af e0 a2 bc d0 56 0f 3c 4a 92 08 be
       0.008167151 -0.019882528 0.008748725 -0.13337055
000320 26 f9 04 3d cd 3c 35 bd 11 9b 79 3b 24 ca 56 bc
       0.03246417 -0.044247437 0.0038086812 -0.0131097175
000330 31 3f 67 3c 15 c9 e1 bc 45 ff da 3b f4 c4 44 bc
       0.014114187 -0.027561704 0.0066832625 -0.012009848
000340 92 dd a5 3c e4 3d 73 bd a4 d5 87 bc 93 75 11 bd
       0.020247255 -0.059385195 -0.016581364 -0.03551252
000350 44 ca ad bd f4 bf 59 3d 4a 84 ff bd 8c 3c 70 3d
       -0.08485845 0.053161576 -0.12476404 0.058651492
000360 b4 d4 0d 3b b7 3d 37 bd e6 20 71 bd 29 a7 9b bd
       0.0021641674 -0.04473659 -0.058869265 -0.07600243
000370 a4 dd f3 3d a6 22 1e bd 11 d3 f0 bd 83 2e 26 bc
       0.11907509 -0.038607262 -0.11759008 -0.010142925
000380 4c 87 a5 3c c2 7f 0b 3c 22 09 83 bd b3 79 1e 3d
       0.020206116 0.008514347 -0.06398226 0.03869028
000390 50 15 84 bd bb 9a 95 bc fe 9e ae bd 62 13 95 bd
       -0.064493775 -0.018262258 -0.08526419 -0.072790876
0003a0 6f fa ef bd b5 9f 09 bd 96 c6 65 bc 90 73 1d 3e
       -0.11717688 -0.033599574 -0.014024397 0.15376115
0003b0 68 99 5c bd 81 7d 67 bd 2c 0f 85 bd 1f 60 c4 3c
       -0.053857237 -0.056516174 -0.064970344 0.023971615
0003c0 48 2c a4 bd 7a 99 d0 bb cc d3 46 3c e9 96 48 bd
       -0.080162585 -0.006365952 0.012135457 -0.048972044
0003d0 39 b8 ae 3c dd b5 87 ba d5 a0 bc bc a6 55 12 bd
       0.021328079 -0.0010353882 -0.02302591 -0.035726212
0003e0 09 74 39 3d 36 ca 25 bd 71 a5 7d 3c bd 3c db bd
       0.045276675 -0.040476047 0.015481339 -0.10704944
0003f0 8d 72 2a bb 4a 28 90 bd e3 7c 09 3d 11 06 fc 3c
       -0.002600822 -0.070389345 0.033566367 0.030764611

fc3.weight f4 [1, 256]
000000 32 95 60 3d 6f 71 30 3d 1c ea 0f 3b 55 d7 4e 3c
       0.054829784 0.04307693 0.0021959608 0.012624581
000010 08 8d 09 3b 83 42 2c bd 54 5d 16 bd f7 55 8f 3b
       0.0020988602 -0.042055618 -0.0367101 0.0043742615
000020 45 37 7d bc 9e c4 b7 3c cc ab 57 3c ef d8 79 3b
       -0.015455072 0.022432622 0.013163518 0.0038123687
000030 b2 eb e3 bb 01 2e ae bd 67 d5 5c bc 83 ac d3 bc
       -0.0069555873 -0.08504868 -0.013478613 -0.025839096
000040 e9 a9 65 3b 6f 7f 39 be d4 ce 15 3e 42 9c 82 bd
       0.0035043901 -0.18115018 0.1462968 -0.0637746
000050 3f 7c 01 bd 4e 7b 66 bc a7 14 aa bc 03 59 3e be
       -0.03161263 -0.014067484 -0.0207618 -0.18588643
000060 5b 05 a1 3c 56 98 8a 3b 20 33 a8 bb 19 89 8f bd
       0.019655874 0.0042295856 -0.0051330477 -0.07008571
000070 45 dd b8 3c b9 f1 a3 bc 98 4d 0d 3c 11 c9 04 b9
       0.022566447 -0.020012723 0.008624457 -0.00012663404
000080 39 f8 38 bb 06 de 1d 3d 6a 2c 9f b9 a6 6c cf 3c
       -0.0028224124 0.038541816 -0.00030359934 0.025320362
000090 06 1e d9 bb a3 de 43 bb 3a 91 12 bc ea 00 0c 3c
       -0.0066258935 -0.002988734 -0.0089457575 0.00854514
0000a0 32 8e 98 bc d2 55 47 3b db 54 41 bd b2 39 1c 3d
       -0.018622492 0.0030416143 -0.047200065 0.03814096
0000b0 01 a4 de bd 4a 76 6a bd b5 dd 57 be 2a 13 20 3c
       -0.10871125 -0.057241715 -0.21080668 0.009770194
0000c0 72 4e 1b be b7 35 49 bb 06 3d 03 3d fa 14 99 bd
       -0.15166643 -0.0030702183 0.03204062 -0.07474704
0000d0 72 7c c2 bc 6d f0 8d bc eb 0d 0e bd 5a 17 17 bc
       -0.02374098 -0.017326558 -0.034681242 -0.009221876
0000e0 c0 81 a6 bd 8b b5 83 be ad bb 88 bc 12 b6 80 3c
       -0.081302166 -0.25724444 -0.016691053 0.015711818
0000f0 66 c7 8b bc e5 a1 6e 3d de b3 38 3b ad d3 43 bd
       -0.017062854 0.058259863 0.002818338 -0.04780929
000100 b6 c1 51 bc ee c8 9d 3b 7e f1 57 3c e4 f5 22 be
       -0.012802532 0.0048152125 0.013180135 -0.15914112
000110 10 49 57 bd b4 79 16 bd f1 12 99 ba 0f 60 44 bd
       -0.052559912 -0.03673716 -0.0011678619 -0.04794317
000120 70 8b 9a bc fb 54 c5 bc a7 81 89 3d cc fc 27 bd
       -0.018865317 -0.024088373 0.06714182 -0.04101257
000130 a0 0c c1 3c fc 5d 38 bb 46 9d 82 bd 51 fb 35 3b
       0.02356559 -0.002813219 -0.06377654 0.0027768204
000140 33 1d 0a 3d b2 48 13 3a 66 11 c6 bc a5 c6 d1 3c
       0.033719253 0.00056184374 -0.024178218 0.025607416
000150 f9 cc 97 39 e4 95 64 3b 68 27 3f 3c a1 34 dc ba
       0.0002895368 0.003487938 0.01166711 -0.0016800353
000160 23 b6 92 3c 99 4d 55 3b 52 eb ab 3c d2 24 ea 3c
       0.017909115 0.0032547473 0.020986233 0.02858201
000170 88 d4 33 3d 88 90 47 bc c4 d1 e6 bd 14 7b 8b 3c
       0.043903857 -0.012180455 -0.11270478 0.017026462
000180 3b e4 11 3c 6a 28 15 bd b8 05 19 bd 51 58 46 bd
       0.008904512 -0.036415495 -0.03735897 -0.04842407
000190 8c cd 93 3d ef f2 07 be 07 51 7b bd 65 d8 a3 bc
       0.07216939 -0.13276266 -0.06135657 -0.020000646
0001a0 f5 8e e3 bc 53 3e 6c 3c 62 a1 22 3e 5a 33 dd 3b
       -0.027778128 0.014419156 0.15881875 0.0067505063
0001b0 cc 6d 80 bd a0 41 be 3c 15 7a 8e 3d 93 59 0d bc
       -0.06270942 0.023224652 0.06956879 -0.008627313
0001c0 1d 18 fa bc 99 c3 ec bd 94 6f 74 bc 5e a4 a0 3c
       -0.030529076 -0.11560745 -0.01491918 0.019609626
0001d0 a0 00 85 3b 5b 53 02 3d 64 a7 c0 3d e3 f7 6d 3d
       0.0040589124 0.031817775 0.09406927 0.05809773
0001e0 20 59 92 3c 35 c4 cb bd 40 d9 64 3d 81 26 7c 3b
       0.017864764 -0.09949533 0.05587125 0.0038475099
0001f0 24 20 c0 bd b8 79 6c 3d 10 15 72 bd ac f1 c7 3c
       -0.0938113 0.057733268 -0.059102118 0.02440723
000200 35 2c 9c 3c 9f 4f da 3b cd b7 bf bc ca 38 34 be
       0.019064048 0.0066623236 -0.023403073 -0.17599788
000210 26 53 48 3c 9c 7a a0 bc 7d 20 55 3c 96 f0 37 bc
       0.012226855 -0.019589715 0.013008234 -0.011226794
000220 7c 3d 6c 3d d0 65 e8 3c 3b a7 bf bb 7a bf ef 39
       0.057675824 0.02836886 -0.005848793 0.00045728293
000230 68 fa a8 3c 6f 4f bf 3c 8c 81 df bc 35 a7 ac bc
       0.020627216 0.023353307 -0.027283452 -0.021075824
000240 68 1c ec bc 19 5d cb ba ba f7 99 3c 11 eb 2d bd
       -0.028822139 -0.0015515416 0.018794883 -0.042460505
000250 2d 5b e6 bc 54 7f b1 bd 5d 3d b1 bc 72 be d7 3d
       -0.028119648 -0.08666864 -0.021635706 0.105343714
000260 04 fd cd bb 70 ef da bb 17 d8 08 3c 49 bf 7d 3a
       -0.0062862653 -0.006681375 0.008352301 0.0009679688
000270 9c 40 ae bc 18 66 fc bd 1b 12 9c bc 04 57 3b 3d
       -0.021271043 -0.1232416 -0.019051602 0.04573728
000280 e2 fa 0a be bb db 9a bd e0 47 8f bb 0a 5e 7e 3c
       -0.13572267 -0.075614415 -0.004372582 0.01552535
000290 64 81 e8 bd 58 4c 55 3a 9d fa c5 bd 46 af b5 3c
       -0.11352804 0.0008136681 -0.09666941 0.022178303
0002a0 1c 2a 58 3b 33 aa 97 bb 96 dc 39 3a 4d 8d 9f 3d
       0.0032984084 -0.0046284436 0.000709006 0.07790623
0002b0 dc 88 3e 3b 3b e0 e3 3a ef 75 0f bd cb 15 d3 3d
       0.0029073274 0.0017385551 -0.03502458 0.10306891
0002c0 0a 84 93 bb fd a5 ad bd a0 6a 7e bc c5 8f 04 3d
       -0.0045018243 -0.084789254 -0.015528351 0.03236367
0002d0 8d 0f 53 3d 91 7a 1d 3d b7 2b 47 bc 01 d8 67 bd
       0.051528502 0.038446967 -0.0121564185 -0.05660248
0002e0 4b 80 dd bd 8b 0d a5 bc 1c cf 56 bd 05 d3 61 3d
       -0.108154856 -0.02014806 -0.05244361 0.055132885
0002f0 2a c9 97 3d 57 a7 20 3d bd 65 90 3b c8 67 dc bd
       0.07411416 0.039222088 0.0044066594 -0.10761982
000300 32 40 f7 3c 23 19 4c bd f7 9e 01 be b6 aa 45 ba
       0.030181978 -0.04982866 -0.12658297 -0.00075403915
000310 2b ae 0f 3d 1e 69 96 bd 4e c5 76 3d c2 b0 fb bd
       0.03507821 -0.07344268 0.06024676 -0.12289573
000320 2e 18 8f 3c 77 65 ad 3d ed 25 88 3d c2 11 31 bd
       0.017467584 0.084666185 0.06647859 -0.043229826
000330 1c 1a a7 3c 41 88 3b 3e e1 54 42 bd 7f 24 71 bd
       0.020398192 0.18313695 -0.047444228 -0.058872696
000340 42 33 a6 3c e7 bf 61 bd 13 c4 ae 3d 45 f5 ed 3c
       0.020288114 -0.055114653 0.08533492 0.029047618
000350 f2 d0 b8 bd c0 ce 2e 3c 76 e1 a2 bd af d3 b9 3c
       -0.09024228 0.01066941 -0.079531595 0.022683946
000360 ba df da bb 47 3a 3f bd f5 ef 75 bd e7 8c 1a bc
       -0.0066795023 -0.046686437 -0.060043294 -0.009433008
000370 d2 ef 81 3b 78 05 8c be 49 b0 f9 bc 4a af 4b be
       0.0039653564 -0.27347922 -0.030479567 -0.19891086
000380 2c dc 93 bd b5 da fb bd 18 34 62 bd 23 b7 89 3c
       -0.07219729 -0.122975744 -0.05522546 0.01681096
000390 b6 5b 13 ba 02 05 14 bd a5 60 68 bd f2 6c 10 bc
       -0.0005621271 -0.03613759 -0.056732792 -0.008815037
0003a0 fd 15 e5 bc 9c d8 a7 3c 5a fb 3a 3c 59 2d 59 3b
       -0.027964586 0.02048903 0.011412466 0.0033138602
0003b0 d1 67 9e b9 b7 54 67 bd 75 25 13 3d 13 53 e3 bb
       -0.00030213458 -0.056477275 0.035924394 -0.0069373935
0003c0 62 53 1b bd f5 cc 1a 3d 34 e3 03 bc 55 fa 08 bd
       -0.037921317 0.03779312 -0.008049775 -0.03344186
0003d0 6a 26 49 3d b7 d9 c9 bc 07 52 92 bc 37 cc 6e 3d
       0.0491089 -0.024639947 -0.01786138 0.058300223
0003e0 e5 0d 81 3d 5c f7 f5 bc 6a 8c 70 bd 7a 9c 9c bc
       0.06301478 -0.030025177 -0.05872766 -0.019117583
0003f0 ee 9d bb 3c 73 6b 86 3a a8 0f de bb 2d e8 54 bd
       0.022902455 0.0010255411 -0.0067767687 -0.051979233
