ddpg_critic_A.pth (torch_old, 580710 bytes, 5 tensors)

fcs1.weight f4 [512, 24]
0.09934765 0.23854989 0.011455743 -0.05626032 -0.026261995 0.13544463 -0.02985081 -0.07896965
0.02748427 0.21525967 -0.027448134 -0.12775323 -0.043683823 0.100144364 -0.0059997477 -0.081772394
0.02778748 0.16126683 0.01456471 -0.16682324 0.02365244 -0.082313135 0.03261049 -0.11053641
0.025458038 0.048604988 -0.03019808 0.017592775 0.02207533 0.004431774 0.045801215 -0.03736914
0.007165513 0.032093987 0.0052698236 0.0105999485 0.057968475 -0.06710727 0.06384057 -0.029660199
0.09222388 0.07427941 -0.032618277 0.1063802 0.1891995 -0.005682503 -0.038089987 0.032139864
-0.03083905 -0.0382343 -0.004070142 0.0029887953 -0.117537096 -0.0006498359 -0.015511671 0.0051178923
0.029502517 0.03504702 -0.05694655 0.053015508 0.048105393 -0.06905386 0.01668608 0.055203103
0.029715434 -0.012261561 -0.00092603004 0.02487935 0.19464532 -0.09208456 -0.039793134 0.021739654
-0.016050378 0.1421824 0.060526066 0.003548799 0.044505943 -0.23805214 0.060652822 0.03256722
-0.005230413 0.15685228 0.037789293 -0.050657436 0.053082988 -0.24189402 0.00827288 -0.035149198
0.026223065 0.07906912 -0.008172851 -0.037255798 -0.076808006 -0.20584914 -0.014983247 -0.012529808
0.03325118 0.07317101 0.042983174 -0.007127843 -0.10445659 0.011581374 -0.0010444492 0.04674098
0.100492656 0.09248072 0.010000153 0.041601576 -0.06634787 0.08683182 -0.0032201053 0.049828045
0.14126207 0.12152621 -0.0077932323 0.0779014 -0.17111439 0.20406662 -0.007663261 0.057178944
0.04784261 0.042336367 -0.00026070018 -0.059570104 -0.18909778 0.1483817 -0.005099172 -0.064650185
0.121456265 -0.0055508893 -0.0041210125 0.010277044 -0.04173824 0.160865 0.009350307 0.0061656684
0.039897725 -0.01361938 0.0058539724 0.057057835 0.06651753 0.19627935 0.009292757 0.022220135
0.01501459 -0.03523345 -0.0043107597 -0.041323103 0.057062943 -0.0028113776 0.00636632 0.00012766999
0.050050862 -0.03160529 -0.013501729 0.004813102 0.038047623 0.030986028 0.05831434 0.03717166
0.03898972 -0.01575331 0.00010155514 -0.023232274 0.12807451 0.14252372 0.030595407 -0.05166436
0.04353196 -0.08516104 -0.01845733 -0.012585937 -0.053993214 -0.05914822 -0.036156848 0.00045521613
0.061993632 -0.16409528 -0.062167574 -0.010153814 -0.10708877 0.06482672 -0.03540295 0.06098719
0.10926655 -0.13131605 -0.04426912 0.13123877 -0.01514559 0.09956306 0.014950401 0.17457712
0.04770649 0.0076398537 0.01380862 -0.09269526 0.072349675 0.026304157 0.04776583 -0.094807856
-0.017417772 -0.010472329 0.025737127 0.0072315116 0.008197172 -0.3149323 -0.009516461 -0.07417761
0.08866416 0.02779212 0.045964867 -0.11371757 0.07393654 0.08636757 0.037424233 -0.10282114
0.045385614 -0.10772745 0.024395771 -0.05907607 -0.087923825 0.17418957 -0.022979526 -0.040252008
0.0016163962 -0.038845103 0.014949613 0.03815954 -0.031393763 0.016356044 -0.008809378 -0.016888939
-0.030258764 -0.112115696 0.015722403 0.018482089 0.13535082 -0.11808397 -0.00054436876 0.02945072
0.046985473 0.033887897 -0.01498032 0.025172234 0.04288189 -0.2616864 -0.08309371 -0.023935847
0.026025442 0.049412265 -0.03841085 0.035813175 -0.03640259 -0.11598152 0.0016493942 -0.0051151477
00000000: c876 cb3d 6c46 743e deb0 3b3c 3971 66bd
00000010: 6523 d7bc ffb1 0a3e b089 f4bc d7ba a1bd
00000020: b126 e13c 086d 5c3e e9da e0bc bed1 02be
00000030: cfed 32bd 7d18 cd3d 8899 c4bb 4978 a7bd
00000040: 92a2 e33c 2223 253e d2a0 6e3c b6d3 2abe
00000050: c3c2 c13c ca93 a8bd 9492 053d ea60 e2bd
00000060: 608d d03c 0616 473d f761 f7bc b91e 903c
00000070: 53d7 b43c 6a38 913b 0e9a 3b3d 6210 19bd
00000080: aecc ea3b fc74 033d 7cae ac3b 68ab 2d3c
00000090: 5a70 6d3d 896f 89bd d8be 823d f2f9 f2bc
000000a0: e0df bc3d ce1f 983d be9a 05bd dddd d93d
000000b0: 84bd 413e 4a34 babb 3f04 1cbd 17a5 033d
000000c0: 2da2 fcbc 929b 1cbd d35e 85bb aadf 433b
000000d0: 4ab7 f0bd c059 2aba aa24 7ebc feb3 a73b
000000e0: 43af f13c 778d 0f3d c940 69bd ca26 593d
000000f0: 290a 453d 1c6c 8dbd 3fb1 883c a61c 623d
00000100: c86d f33c b7e4 48bc d3c0 72ba c7cf cb3c
00000110: 1a51 473e d496 bcbd 20fe 22bd 5c17 b23c
00000120: 157c 83bc 4398 113e 2eea 773d f892 683b
00000130: dd4b 363d f1c3 73be 186f 783d 3565 053d
00000140: e263 abbb e29d 203e f2c8 1a3d 2c7e 4fbd
00000150: 8c6d 593d 11b3 77be f98a 073c 9bf8 0fbd
00000160: c1d1 d63c feee a13d 6ce7 05bc 8999 18bd
00000170: 844d 9dbd 1eca 52be 4b7c 75bc d349 4dbc
00000180: 6432 083d afda 953d 200f 303d ae90 e9bb
00000190: 56ed d5bd cebf 3d3c e6e5 88ba 7873 3f3d
000001a0: 18cf cd3d 8866 bd3d afd7 233c 6a66 2a3d
000001b0: 64e1 87bd e2d4 b13d 6708 53bb 7e18 4c3d
000001c0: 01a7 103e bce2 f83d 5f5e ffbb c58a 9f3d
000001d0: 9c38 2fbe d7f6 503e 181c fbbb 7834 6a3d
000001e0: 9df6 433d e668 2d3d 96ae 88b9 c8ff 73bd
000001f0: d9a2 41be 5ff1 173e f416 a7bb 5167 84bd
00000200: 10be f83d 3ce4 b5bb 8f09 87bb 0c61 283c
00000210: b7f5 2abd cbb9 243e 0832 193c 6009 ca3b
00000220: cc6b 233d d223 5fbc aed2 bf3b 7ab5 693d
00000230: 583a 883d 74fd 483e a640 183c 0007 b63c
00000240: c1ff 753c f350 10bd 4641 8dbb 6a42 29bd
00000250: d5ba 693d 173f 38bb 909c d03b 27df 0539
00000260: 2202 4d3d 8c74 01bd 5b36 5dbc 3ab7 9d3b
00000270: d3d7 1b3d 69d6 fd3c 04db 6e3d 5041 183d
00000280: afb3 1f3d 160d 81bc 00fa d438 9c51 bebc
00000290: f725 033e bdf1 113e 38a3 fa3c 029e 53bd
000002a0: 924e 323d e968 aebd d433 97bc 3f35 4ebc
000002b0: fd27 5dbd 6745 72bd 3419 14bd 13aa ee39
000002c0: 09ed 7d3d 9808 28be 6da3 7ebd 2f5c 26bc
000002d0: 5b51 dbbd dfc3 843d af02 11bd b4cd 793d
000002e0: 24c7 df3d b777 06be 8953 35bd 7563 063e
000002f0: 3525 78bc b8e7 cb3d 87f2 743c 58c4 323e
00000300: e167 433d bd57 fa3b 8d3d 623c 03d7 bdbd
00000310: 112c 943d d17b d73c 1aa6 433d 9f2a c2bd
00000320: b7af 8ebc 2294 2bbc abd6 d23c 51f6 ec3b
00000330: 6e4d 063c ce3e a1be eeea 1bbc 6eea 97bd
00000340: 8e95 b53d 4dac e33c a845 3c3d c2e4 e8bd
00000350: 0a6c 973d 7be1 b03d 274a 193d e493 d2bd
00000360: 44e6 393d 36a0 dcbd a4d9 c73c c0f9 71bd
00000370: 6811 b4bd c05e 323e 8f3f bcbc 4adf 24bd
00000380: 42dd d33a 0b1c 1fbd 39ef 743c 2e4d 1c3d
00000390: bf96 00bd 1cfd 853c 3655 10bc ac5a 8abc
000003a0: 3ae1 f7bc ea9c e5bd 45cc 803c c067 973c
000003b0: 6899 0a3e 02d6 f1bd f8b3 0eba a342 f13c
000003c0: d773 403d 09ce 0a3d 0470 75bc 0036 ce3c
000003d0: eca4 2f3d c3fb 85be 092d aabd 1c15 c4bc
000003e0: 4f33 d53c 8464 4a3d b254 1dbd d6b0 123d
000003f0: e21a 15bd b887 edbd 7c30 d83a f89c a7bb

fcs1.bias f4 [512]
-0.05981377 -0.053207505 -0.021366475 -0.19921139 -0.19649795 -0.05317451 -0.14457569 0.14865704
-0.07218255 -0.021634687 -0.21799879 0.056805927 0.19866021 0.17200732 -0.2431948 -0.11111755
-0.03959335 -0.088795036 -0.22323914 0.1278109 0.24027604 -0.15310507 0.09732907 -0.095701836
0.17734851 -0.06050065 0.08811359 -0.058464617 -0.13125776 -0.19192566 -0.23801222 0.20632003
0.23400533 0.17661768 0.1527865 -0.22188085 -0.21782973 -0.03764507 -0.28177708 -0.019792093
0.0020887158 -0.13333127 -0.059922677 -0.048524357 -0.21663943 -0.09874321 0.061303925 -0.22583584
0.08793268 0.16217643 -0.38313538 -0.1765859 -0.03407437 -0.04774473 -0.09365555 -0.008542514
-0.019112991 -0.070202835 0.1302974 0.0631356 0.04928198 -0.057865016 -0.14387263 0.014749651
0.109411255 -0.0014399587 -0.20809148 0.032251447 -0.16562866 0.0033770658 0.11353388 -0.28875986
-0.06393018 0.24466169 0.06940048 0.20916937 -0.09923547 -0.011070667 -0.14882971 -0.17730412
-0.008953249 0.26655322 0.19095182 -0.11445844 0.115693025 -0.236628 -0.27342385 0.03435489
0.14055294 0.13421232 -0.17841448 -0.10663364 0.15171367 0.09911334 -0.12416193 -0.1065362
0.10343539 0.14738522 0.08177027 0.025681295 -0.1387789 -0.20814914 0.12781996 0.041192565
0.03308626 0.15939592 -0.13786191 -0.12497075 0.16100831 -0.10796972 -0.18990992 -0.11912026
-0.07167794 -0.20405513 -0.35900357 -0.023325663 -0.15107013 0.06740755 -0.24654698 -0.112748675
-0.18317221 -0.11147325 -0.25767422 -0.14128551 -0.14406976 0.11599193 -0.17994548 0.19492745
0.16345541 0.05360269 -0.077850014 -0.12306026 -0.08565041 -0.22349614 0.026027393 0.21162118
-0.1051124 -0.20024109 -0.0056821653 -0.28197867 -0.0910441 -0.2264666 -0.18989852 -0.09777455
0.1048289 -0.005517476 0.012618136 0.13104618 0.084846124 0.027751464 0.024697041 -0.16415356
-0.013474864 0.046279524 0.07269506 -0.2245211 -0.0870994 -0.032313842 0.051538594 0.007780995
-0.12425005 0.1413825 -0.027845241 -0.123712435 -0.2641646 0.0071693063 -0.18233731 0.040020235
0.019415786 -0.09314612 0.13204408 -0.04758576 -0.030150667 0.15270321 0.009660996 -0.049627222
0.19038753 -0.26492044 0.030564336 -0.032568093 -0.04659127 -0.010871862 -0.012791476 -0.15826656
-0.22126555 -0.23254709 0.16494906 0.07985135 -0.0509032 0.07866483 0.12263498 0.20154308
0.06009717 0.21868347 -0.047090523 -0.010774671 -0.1681588 -0.31587082 -0.02773661 -0.2460021
0.08456107 0.06383937 0.08237478 -0.2139632 0.00046875278 0.18496677 -0.03965233 -0.12998691
-0.061733067 0.27720317 -0.16727282 -0.22410241 0.17681006 0.132668 -0.065011166 0.12827447
-0.23290823 0.13351025 -0.22995196 -0.13423403 0.16150968 -0.16589902 -0.29898798 0.020760903
0.14688684 -0.11638121 -0.25064132 0.026026534 0.12825303 -0.19516069 -0.15336135 0.0048741596
0.1567308 -0.28113803 -0.011163355 -0.052117765 -0.025399426 0.119285025 0.100064576 -0.030556465
0.14344537 -0.30375004 -0.035380077 -0.0726051 -0.17057008 -0.0787 -0.13663913 -0.3167891
-0.03728836 0.18605496 -0.23810858 -0.034175653 -0.117586754 -0.17954268 0.12125077 -0.28394213
00000000: 49ff 74bd 1df0 59bd bf08 afbc 12fe 4bbe
00000010: c236 49be 84cd 59bd a60b 14be 8d39 183e
00000020: 72d4 93bd 3a3b b1bc 133b 5fbe 55ad 683d
00000030: 956d 4b3e b022 303e 0f08 79be 9991 e3bd
00000040: a32c 22bd 2cda b5bd cd98 64be dce0 023e
00000050: ec0a 763e 93c7 1cbe 7754 c73d 53ff c3bd
00000060: d99a 353e 88cf 77bd e674 b43d 9878 6fbd
00000070: 6f68 06be 2988 44be 7ab9 73be 8f45 533e
00000080: 189f 6f3e 44db 343e 1074 1c3e bc34 63be
00000090: c20e 5fbe b831 1abd 1645 90be 0723 a2bc
000000a0: d6e2 083b fe87 08be 7b71 75bd 7ac1 46bd
000000b0: bad6 5dbe e139 cabd d319 7b3d 8341 67be
000000c0: 0d16 b43d 9411 263e 522a c4be efd2 34be
000000d0: 9191 0bbd fa8f 43bd 7bce bfbd e7f5 0bbc
000000e0: d992 9cbc 81c6 8fbd ae6c 053e 3d4d 813d
000000f0: e7db 493d de03 6dbd 5953 13be 85a8 713c
00000100: 0213 e03d ffbc bcba ef15 55be 181a 043d
00000110: 8f9a 29be c351 5d3b 7384 e83d 55d8 93be
00000120: d4ed 82bd 9888 7a3e d721 8e3d 7f30 563e
00000130: f73b cbbd be61 35bc d166 18be 368f 35be
00000140: a6b0 12bc aa79 883e e088 433e 3069 eabd
00000150: 77f0 ec3d 9c4e 72be 36fe 8bbe b7b7 0c3d
00000160: 1ced 0f3e f46e 093e 49b2 36be bd62 dabd
00000170: d45a 1b3e effb ca3d 9c48 febd a72f dabd
00000180: efd5 d33d 27ec 163e 2c77 a73d 9461 d23c
00000190: 0e1c 0ebe 0c25 55be 3ce3 023e 89b9 283d
000001a0: 7585 073d af38 233e ac2b 0dbe aaf0 ffbd
000001b0: 5ddf 243e 3b1f ddbd bf77 42be 53f5 f3bd
000001c0: e2cb 92bd d4f3 50be 51cf b7be 7615 bfbc
000001d0: 21b2 1abe f80c 8a3d d076 7cbe c7e8 e6bd
000001e0: 7f91 3bbe 164c e4bd e0ed 83be 26ad 10be
000001f0: 0687 13be 2d8d ed3d a143 38be 109b 473e
00000200: db60 273e 7f8e 5b3d d46f 9fbd 0507 fcbd
00000210: 7b69 afbd 2cdc 64be 6637 d53c 39b3 583e
00000220: 2c45 d7bd 000c 4dbe 7531 babb 825f 90be
00000230: 5475 babd dce6 67be c274 42be 063e c8bd
00000240: 89b0 d63d f1cb b4bb 4cbc 4e3c f830 063e
00000250: cec3 ad3d 0a57 e33c 7351 ca3c df17 28be
00000260: adc5 5cbc 998f 3d3d 26e1 943d dce8 65be
00000270: 2c61 b2bd 855b 04bd 221a 533d b8f7 fe3b
00000280: cf76 febd 93c6 103e b41b e4bc f25c fdbd
00000290: 9540 87be 80ec ea3b a2b6 3abe 42ec 233d
000002a0: db0d 9f3c 65c3 bebd 9036 073e 49e9 42bd
000002b0: 88fe f6bc 3b5e 1c3e 2749 1e3c ea45 4bbd
000002c0: f3f4 423e a7a3 87be 0f62 fa3c 1f66 05bd
000002d0: 7dd6 3ebd e51f 32bc 5793 51bc a110 22be
000002e0: 7093 62be d320 6ebe 68e8 283e 1b89 a33d
000002f0: e07f 50bd 071b a13d 0c28 fb3d 4f61 4e3e
00000300: 7328 763d 8fee 5f3e fee1 40bd 3f88 30bc
00000310: d231 2cbe d2b9 a1be e337 e3bc f9e7 7bbe
00000320: 5b2e ad3d 37be 823d 1cb4 a83d 2b19 5bbe
00000330: efc2 f539 ee67 3d3e 7b6a 22bd 4a1b 05be
00000340: d0db 7cbd 93ed 8d3e 9149 2bbe 1a7b 65be
00000350: b20d 353e 1fda 073e 9324 85bd 625a 033e
00000360: 7f7f 6ebe e9b6 083e 8778 6bbe a574 09be
00000370: cb62 253e 6fe1 29be f414 99be c512 aa3c
00000380: 8169 163e 4659 eebd 0f54 80be 9935 d53c
00000390: c354 033e 34d8 47be c20a 1dbe 6ab7 9f3b
000003a0: 0a7e 203e 53f1 8fbe 81e6 36bc 7079 55bd
000003b0: 7512 d0bc b54b f43d a8ee cc3d 8d51 fabc
000003c0: 58e3 123e 2085 9bbe b3ea 10bd fcb1 94bd
000003d0: eca9 2ebe 772d a1bd 21eb 0bbe 2e32 a2be
000003e0: aebb 18bd 3185 3e3e bcd2 73be c5fb 0bbd
000003f0: 53d1 f0bd 09da 37be 5352 f83d dd60 91be

fc2.weight f4 [256, 514]
-0.069652654 -0.054873735 0.050799895 -0.067867406 0.03183339 0.021105627 -0.026260974 0.028771453
0.024754805 0.069430806 0.047000065 0.037707884 0.021902535 -0.1527302 0.04923953 -0.057181206
-0.13057022 -0.0028951974 -0.00509758 0.013541906 0.022848679 0.03364675 -0.03132847 -0.0072065215
0.07851391 0.019501664 -3.2778218e-05 -0.020987228 -0.095361575 -0.07666857 -0.07097939 0.025554525
0.011395362 -0.023158137 -0.0022315574 -0.057172675 -0.10788934 -0.104585856 -0.023126151 -0.03761239
-0.11559801 0.039806973 -0.09407292 0.030090736 -0.11910098 0.0022961085 -0.09067001 0.00015365377
-0.11187601 -0.085139506 -0.05997034 -0.023408934 0.012083329 -0.1687061 -0.0078083994 -0.06472444
-0.02688333 -0.008843401 -0.0075404313 0.05928385 0.012658709 -0.11409804 -0.026045823 -0.10146812
0.07484501 -0.013231014 0.1687332 -0.06158249 -0.029966053 0.06406197 -0.053518254 0.10217326
-0.14589246 0.047414165 -0.022492899 0.056005612 -0.20549977 0.13415833 -0.17561778 -0.25560328
0.011795043 0.03000424 -0.10035154 -0.0064856214 -0.023380013 0.07255485 -0.06778205 -0.07845871
-0.13403028 0.021561816 0.024088923 -0.076502725 0.029355533 0.075443506 0.007310971 -0.051805917
0.018370038 0.01094013 -0.074417144 -0.05093422 -0.08913287 -0.059626333 -0.2335752 0.029699288
-0.009339963 0.012790697 -0.0020736128 -0.09433109 -0.0011153512 -0.0031465879 -0.12459363 0.037096612
-0.16209333 -0.066396564 -0.11665285 -0.16847791 -0.05699116 -0.07433882 -0.03434538 0.052069854
-0.15258533 -0.30821344 0.012166423 -0.105883665 -0.014451414 -0.09813356 -0.013940335 -0.1041842
0.023663698 -0.03444709 0.02554726 -0.046351757 -0.056657873 0.05151055 -0.05524211 -0.033404753
-0.029610323 -0.08401583 0.008213366 -0.040903784 -0.026410509 -0.025521709 -0.20571436 -0.1338548
-0.009836946 0.08431591 -0.12386393 -0.001021529 -0.021011842 0.023980595 -0.023071377 -0.13054228
0.029968439 0.042671718 0.020876655 0.011028993 -0.06258979 0.017805541 -0.13829975 -0.10012935
-0.21153735 0.017737567 0.08151253 0.024789086 -0.017945485 -0.12015194 0.078827284 -0.09080006
0.011936536 -0.019678062 -0.039866284 0.027251767 -0.12916462 0.016085774 0.018252237 -0.050195366
-0.14906153 0.055571996 -0.04674018 -0.055297397 -0.12541792 -0.13089636 -0.08867513 -0.048639346
-0.062112704 -0.03070501 0.04951545 -0.0045382935 -0.043225713 -0.008284206 -0.106103845 0.0654614
0.0027155166 -0.022550587 -0.13498367 -0.09292102 0.11841825 -0.06337727 -0.060914848 -0.09824412
-0.21376139 0.061883364 -0.0153118335 0.03415934 -0.05029194 0.053231463 -0.008868944 -0.004453898
-0.073265806 0.021042552 -0.06896266 -0.11559078 -0.05473326 0.010610856 -0.18407555 -0.1698936
-0.047542 -0.0022523706 0.0010627303 0.014678497 -0.09218044 -0.0763872 0.05097352 -0.06967946
-0.044454925 0.087271236 0.00081581593 -0.03731537 -0.035037305 0.008649735 -0.05989865 0.054568134
-0.07297305 -0.05246276 -0.13678299 -0.016239388 0.10457269 0.021887101 -0.023227995 -0.12816173
-0.14774726 -0.16708657 -0.0865556 -0.016823621 -0.06387992 0.08698784 -0.041192427 0.016305963
-0.054983605 -0.011036906 0.0125909755 -0.0933118 0.02055925 0.03631058 0.03385924 -0.06389173
00000000: 0da6 8ebd 48c3 60bd 8d13 503d 11fe 8abd
00000010: bb63 023d b5e5 ac3c 4121 d7bc 1cb2 eb3c
00000020: 97ca ca3c bd31 8e3d 2483 403d 9573 1a3d
00000030: f26c b33c 4e65 1cbe 64af 493d d736 6abd
00000040: 33b4 05be 5abd 3dbb 9a09 a7bb dfde 5d3c
00000050: 272d bb3c 2dd1 093d 4852 00bd af24 ecbb
00000060: e7cb a03d f4c1 9f3c 587b 09b8 68ed abbc
00000070: ee4c c3bd 6904 9dbd a45d 91bd b957 d13c
00000080: 9db3 3a3c 22b6 bdbc 523f 12bb e52d 6abd
00000090: 16f5 dcbd 1c31 d6bd 0e73 bdbc 730f 1abd
000000a0: a6be ecbd a30c 233d 4ea9 c0bd d980 f63c
000000b0: 37eb f3bd 4f7a 163b 33b1 b9bd 1f1e 2139
000000c0: 401f e5bd 9f5d aebd 76a3 75bd 18c4 bfbc
000000d0: 28f9 453c 4bc1 2cbe 9add ffbb 3f8e 84bd
000000e0: 6e3a dcbc eae3 10bc b915 f7bb 9fd3 723d
000000f0: 7966 4f3c 3cac e9bd 0d5e d5bc 85ce cfbd
00000100: 5748 993d e5c6 58bc 65c8 2c3e ec3d 7cbd
00000110: 5e7b f5bc ec32 833d f535 5bbd 3740 d13d
00000120: d564 15be 5b35 423d 0743 b8bc 2466 653d
00000130: 886e 52be cd60 093e 26d5 33be 6fde 82be
00000140: ff3f 413c 74cb f53c 1c85 cdbd 5685 d4bb
00000150: 7187 bfbc a397 943d 51d1 8abd f6ae a0bd
00000160: 3c3f 09be 68a2 b03c 2256 c53c 76ad 9cbd
00000170: 047b f03c 2082 9a3d df90 ef3b 7132 54bd
00000180: c37c 963c 3b3e 333c 0468 98bd 67a0 50bd
00000190: 4b8b b6bd be3a 74bd 562e 6fbe ec4b f33c
000001a0: a506 19bc 1290 513c 73e5 07bb a930 c1bd
000001b0: fa30 92ba fc36 4ebb f22a ffbd 9ef2 173d
000001c0: cbfb 25be ecfa 87bd b0e7 eebd 7985 2cbe
000001d0: 906f 69bd f43e 98bd bead 0cbd 3347 553d
000001e0: 543f 1cbe 27ce 9dbe ad55 473c 89d9 d8bd
000001f0: a0c5 6cbc 3ffa c8bd 0166 64bc 875e d5bd
00000200: 5fda c13c 6418 0dbd 7d48 d13c 57db 3dbd
00000210: 1612 68bd bafc 523d 8d45 62bd 6cd3 08bd
00000220: 5991 f2bc 7e10 acbd 5b91 063c ba8a 27bd
00000230: da5a d8bc e712 d1bc c9a6 52be 3c11 09be
00000240: 242b 21bc d2ad ac3d 5fac fdbd d3e4 85ba
00000250: 0721 acbc f472 c43c 2f00 bdbc e0ac 05be
00000260: 5f80 f53c 8ac8 2e3d 8505 ab3c f3b2 343c
00000270: 132f 80bd eddc 913c 739e 0dbe 9e10 cdbd
00000280: 3f9d 58be 604e 913c 0bf0 a63d 7b12 cb3c
00000290: 6902 93bc 3812 f6bd 3370 a13d 62f5 b9bd
000002a0: 7691 433c e333 a1bc d44a 23bd 193f df3c
000002b0: bb43 04be 50c6 833c b785 953c a899 4dbd
000002c0: 96a3 18be 769f 633d a272 3fbd 867f 62bd
000002d0: 8e6d 00be b209 06be 4e9b b5bd 0d3a 47bd
000002e0: e469 7ebd 1389 fbbc b6d0 4a3d f7b5 94bb
000002f0: 720d 31bd 7aba 07bc f94c d9bd a010 863d
00000300: cff6 313b 02bc b8bc 2939 0abe 604d bebd
00000310: 4485 f23d f1cb 81bd d981 79bd 3734 c9bd
00000320: 44e4 5abe 6979 7d3d 7cde 7abc aaea 0b3d
00000330: ecfe 4dbd 3c09 5a3d 0c4f 11bc 01f2 91bb
00000340: 620c 96bd 6e61 ac3c 4c3c 8dbd dcba ecbd
00000350: fc2f 60bd 28d9 2d3c 4d7e 3cbe 96f8 2dbe
00000360: 66bb 42bd 829c 13bb 504b 8b3a 147e 703c
00000370: 19c9 bcbd e470 9cbd 9cc9 503d 1bb4 8ebd
00000380: 5e16 36bd 43bb b23d 7bdc 553a 00d8 18bd
00000390: 4783 0fbd 9eb7 0d3c 4958 75bd d682 5f3d
000003a0: e572 95bd 31e3 56bd d710 0cbe 7708 85bc
000003b0: 352a d63d 944c b33c a348 bebc d43c 03be
000003c0: 0f4b 17be be18 2bbe 1044 b1bd b1d1 89bc
000003d0: 7ad3 82bd ae26 b23d 64b9 28bd 1594 853c
000003e0: 7d36 61bd 24d4 34bc 614a 4e3c 421a bfbd
000003f0: df6b a83c 67ba 143d fdaf 0a3d abd9 82bd

fc2.bias f4 [256]
-0.038278222 -0.083779074 0.03926284 -0.09143376 0.0047652163 -0.0016859628 -0.03498444 0.10914987
-0.08698649 -0.06314715 0.023971733 -0.030944172 0.0031097925 -0.08432952 0.04321596 0.042809505
-0.013709014 -0.05439361 0.15434182 -0.018646112 -0.011333684 -0.024268806 -0.086632416 -0.055365086
-0.057837345 -0.03700923 0.024213988 -0.14654139 -0.033073895 -0.05426706 0.008283451 0.012407341
-0.015079875 0.021458812 0.0076139295 -0.016713692 0.14436843 0.16080047 -0.042546835 -0.0076516913
-0.004596586 -0.11057563 0.016589759 0.11970037 0.00018004084 -0.043422315 -0.020305052 0.052599452
-0.067041054 -0.04525512 -0.013334721 -0.028864939 -0.032965597 -0.019232474 -0.0122940065 -0.02576814
-0.082977116 0.027690548 0.016185727 -0.07036795 -0.05211847 0.17099017 -0.038799014 -0.07052728
-0.10284782 -0.072889194 -0.024666958 -0.02264141 -0.020871034 -0.05347122 -0.058836766 -0.17894448
-0.07175428 -0.16288026 -0.07991454 0.08926981 -0.027413802 -0.04561179 0.019209571 0.040849943
0.20604213 -0.0140667865 0.047692824 -0.020878728 -0.041454703 -0.03805294 0.003933515 -0.063239515
-0.02233768 0.004896237 -0.008041716 -0.0037971395 -0.04785501 0.008428782 -0.042666916 -0.013908172
0.004609188 0.003525305 0.01711452 -0.046288714 0.083206885 -0.07874841 0.04127126 0.051369052
-0.10346934 -0.066340595 -0.03181733 0.0008670304 -0.00355377 -0.041234802 0.012506489 -0.13438345
0.04472184 -0.0067121256 -0.031600825 -0.06459266 0.10831213 0.0060223863 -0.04832519 0.085724145
-0.070655815 0.13113306 0.04417911 0.008514956 0.051481295 -0.024979146 0.019896748 -0.011322241
-0.13213165 -0.04852268 -0.04001462 -0.025318105 -0.04803443 0.030702138 0.12663954 0.020944519
-0.0061787944 -0.03436182 -0.04790952 0.026992608 0.017960513 -0.025579184 -0.0766452 -0.0036428024
-0.037455622 -0.033312984 -0.0577074 -0.04997868 -0.09350266 0.00058440724 0.14309807 -0.034078546
-0.014282882 -0.043243583 -0.051119953 -0.03628749 -0.00918475 -0.016258549 -0.09767794 -0.044167034
-0.067113094 -0.02537156 0.14157653 -0.0778019 -0.026630497 -0.029762352 -0.036123954 -0.010656222
0.021579433 0.015707113 -0.060167793 -0.009628878 0.14012124 -0.05373362 -0.06751483 0.022303706
0.0045532514 0.11846276 0.013630096 -0.084978245 -0.032076657 -0.04723974 -0.0125704715 -0.023493836
0.0028389734 0.008796518 -0.16173145 -0.011772084 -0.048936523 -0.11118082 0.067827225 0.0008415251
-0.022614572 -0.06293016 0.07383676 -0.04992312 -0.020566566 0.0031578075 0.059963018 -0.03234047
0.04783092 -0.060828023 -0.04951016 -0.023357198 0.007332554 -0.035858613 0.015822653 -0.045995515
0.058153965 -0.0598505 -0.03807951 -0.04450188 0.015244827 -0.05389917 0.056439 0.071295366
0.13921313 -0.07907004 -0.1384446 -0.018880202 0.16275443 -0.027922204 -0.040526327 0.063603856
-0.011089403 0.019249827 0.1363055 -0.059641674 -0.19497979 -0.009760467 -0.08621107 -0.091597125
-0.06327625 -0.083616 0.005399168 -0.050173786 0.1504135 -0.041920174 -0.07011849 0.07566994
0.013020813 0.01278383 -0.063320324 -0.00813991 -0.107563935 -0.03489362 -0.023145832 -0.19526199
-0.0051019858 0.026891422 0.020268615 -0.10014049 0.0692096 -0.06856833 0.1897026 0.062670864
00000000: a0c9 1cbd 5d94 abbd 12d2 203d a041 bbbd
00000010: 8825 9c3b 86fb dcba d84b 0fbd f889 df3d
00000020: f925 b2bd 4b53 81bd 5e60 c43c a27e fdbc
00000030: a9cd 4b3b f5b4 acbd 3803 313d 0559 2f3d
00000040: c69b 60bc d6cb 5ebd c80b 1e3e bbbf 98bc
00000050: ebb0 39bc 60cf c6bc 566c b1bd 80c6 62bd
00000060: dae6 6cbd fe96 17bd 6a5c c63c f20e 16be
00000070: 7e78 07bd 2347 5ebd 50b7 073c 2948 4b3c
00000080: 9411 77bc 64ca af3c 457e f93b 27eb 88bc
00000090: 51d5 133e e1a8 243e 9745 2ebd 0abb fabb
000000a0: f59e 96bb 7a75 e2bd 3fe7 873c 7825 f53d
000000b0: 58c9 3c39 99db 31bd c856 a6bc 8672 573d
000000c0: d24c 89bd 6f5d 39bd e079 5abc 2a76 ecbc
000000d0: ef06 07bd 6c8d 9dbc cd6c 49bc b517 d3bc
000000e0: e8ef a9bd 4ad7 e23c ee97 843c 121d 90bd
000000f0: 2d7a 55bd 0c18 2f3e b7eb 1ebd 9b70 90bd
00000100: e1a1 d2bd ee46 95bd 5c12 cabc 7a7a b9bc
00000110: bbf9 aabc a304 5bbd d2fe 70bd 393d 37be
00000120: e8f3 92bd 15ca 26be 3caa a3bd 17d3 b63d
00000130: e992 e0bc 6ed3 3abd 645d 9d3c 4552 273d
00000140: b5fc 523e 6178 66bc 8d59 433d de09 abbc
00000150: 68cc 29bd 66dd 1bbd b7e4 803b b883 81bd
00000160: 83fd b6bc 9d70 a03b 67c1 03bc 6ed9 78bb
00000170: 9d03 44bd e018 0a3c 81c3 2ebd 1adf 63bc
00000180: ac08 973b ce08 673b c033 8c3c 3c99 3dbd
00000190: 5f68 aa3d d946 a1bd 0d0c 293d 5b68 523d
000001a0: bce7 d3bd 94dd 87bd e352 02bd 6d49 633a
000001b0: 5ee6 68bb d3e5 28bd 04e8 4c3c d19b 09be
000001c0: 402e 373d 64f1 dbbb de6f 01bd 2849 84bd
000001d0: c0d2 dd3d 7057 c53b a2f0 45bd 2490 af3d
000001e0: ffb3 90bd bf47 063e 28f5 343d 5082 0b3c
000001f0: 0dde 523d 11a1 ccbc 81fe a23c ec80 39bc
00000200: 854d 07be b8bf 46bd 5fe6 23bd ea67 cfbc
00000210: c0bf 44bd 0d83 fb3c ccad 013e d793 ab3c
00000220: 7c77 cabb fbbe 0cbd c63c 44bd 9a1f dd3c
00000230: ed21 933c 708b d1bc 29f8 9cbd 15bc 6ebb
00000240: 116b 19bd 3273 08bd 985e 6cbd 72b6 4cbd
00000250: 537e bfbd e832 193a 4d88 123e f295 0bbd
00000260: c002 6abc 2f20 31bd 2863 51bd 31a2 14bd
00000270: a27b 16bc a630 85bc 5f0b c8bd 7ee8 34bd
00000280: 9772 89bd 05d8 cfbc 70f9 103e 9a56 9fbd
00000290: 3328 dabc 2dd0 f3bc b6f6 13bd 6f97 2ebc
000002a0: 5ac7 b03c 34ac 803c 8172 76bd 71c2 1dbc
000002b0: f17b 0f3e c917 5cbd 3745 8abd 43b6 b63c
000002c0: 7133 953b 9a9c f23d c450 5f3c 1309 aebd
000002d0: d062 03bd 757e 41bd 61f4 4dbc 2576 c0bc
000002e0: 120e 3a3b 451f 103c ee9c 25be b3df 40bc
000002f0: aa71 48bd c5b2 e3bd 00e9 8a3d cb99 5c3a
00000300: 3242 b9bc 87e1 80bd ba37 973d 2f7c 4cbd
00000310: 377b a8bc 38f3 4e3b c89b 753d 7177 04bd
00000320: 5bea 433d ce26 79bd 2acb 4abd 9857 bfbc
00000330: ec45 f03b 7be0 12bd 829e 813c cb65 3cbd
00000340: da32 6e3d cc25 75bd 43f9 1bbd 9a47 36bd
00000350: 70c5 793c 60c5 5cbd 952c 673d 4e03 923d
00000360: e38d 0e3e 79ef a1bd 6cc4 0dbe a7aa 9abc
00000370: 19a9 263e 1bbd e4bc effe 25bd bd42 823d
00000380: 54b0 35bc d0b1 9d3c ab93 0b3e d44a 74bd
00000390: c8a8 47be 5eea 1fbc 6e8f b0bd 4697 bbbd
000003a0: fb96 81bd de3e abbd 81eb b03b 0783 4dbd
000003b0: ff05 1a3e 7db4 2bbd 489a 8fbd d7f8 9a3d
000003c0: 4055 553c 4573 513c 16ae 81bd 425d 05bc
000003d0: 7b4a dcbd 9dec 0ebd 549c bdbc c2f2 47be
000003e0: 8f2e a7bb 664b dc3c 5e0a a63c 7516 cdbd
000003f0: c3bd 8d3d 8d6d 8cbd 6641 423e 9559 803d

fc3.weight f4 [1, 256]
-0.035737585 -0.22667924 0.05067096 -0.11689758 0.0378018 -9.446908e-06 -0.05938732 0.0151788145
-0.033875965 -0.16393548 0.015782492 -0.15985401 -0.014438307 -0.0076522436 -0.024394538 -0.07332132
-0.0057980884 -0.056046277 0.005080092 0.026992716 -0.038600497 -0.005147112 -0.048871756 -5.486774e-05
-0.0077832784 -0.0063158446 0.02130452 -0.022916133 -0.059687756 -0.08142985 -0.19513316 0.10003339
-0.015495609 -0.047261763 0.057861302 -0.18495117 0.0027764894 0.0037741347 -0.015547751 0.0057940097
0.039390396 -0.026932087 -0.11113473 0.0028623943 -0.048511714 -0.007978324 0.008653545 0.0076227807
-0.026316406 -0.0013111001 -0.009995163 0.0006913767 0.0018303447 0.07252062 -0.27628088 -0.0037819003
-0.20874959 -0.09548282 0.0030687964 -0.0069963527 -0.035315737 0.0029095614 0.0044121426 -0.0482961
-0.006895519 -0.03697639 -0.08326022 -0.08305493 -0.028826308 -0.08151233 -0.004682108 -0.030646043
-0.019130534 -0.032064077 -0.017891742 0.023569131 0.024217442 0.0017731499 -0.024671106 -0.011833298
0.003626164 0.03426165 -0.023692347 -0.2122311 0.003952063 -0.010008639 0.017283672 0.0062356377
-0.0106225 0.027853888 0.021994881 0.010484042 -0.015227658 0.0024971685 -0.034904476 0.040086593
0.020092225 -0.0069931983 0.0075369445 -0.14415354 0.016631328 -0.013460073 0.21808842 -0.017756563
-0.032945912 -0.0021974624 -0.062262088 0.002296308 -0.09118843 -0.1114832 -0.04232773 -0.009515181
0.029548889 -0.089619815 -0.021582581 0.022507362 0.0046180836 0.01461709 -0.007176058 0.028042858
-0.021488171 0.0047053006 -0.0042458805 -0.0053752437 0.011271204 -0.01591572 0.022777328 0.0015138298
-0.0146060325 -0.007222949 -0.018157175 -0.01807932 -0.19149204 -0.079461135 0.00662287 -0.04017162
0.08068285 -0.025736462 -0.19187437 0.008706022 0.040104292 -0.34328735 -0.016928151 0.09072107
-0.08844546 0.0056017647 -0.006218117 -0.005443841 -0.01801049 -0.03574089 0.013807017 -0.012239266
-0.059816536 -0.008841417 0.03807764 0.003670117 -0.03781272 -0.08163504 -0.047519136 0.054442715
-0.032093138 -0.025644712 0.0049995105 0.0020498354 -0.1550812 0.0675775 -0.03853726 0.017961746
0.022142049 -0.01761314 -0.0138840685 -0.023565438 0.0052591534 -0.0032619655 -0.006030991 -0.004796063
0.0333227 0.00822124 0.0015334146 -0.015556093 -0.0049499115 -0.010344068 -0.13395782 -0.056181762
-0.0074225618 0.041108955 -0.01974339 -0.008385514 -0.02971629 -0.06641196 0.013511713 0.005169802
0.009867786 -0.07003549 0.0053220997 -0.025651664 -0.0034316436 -0.111534685 0.028370481 0.050979827
0.013903377 -0.0005650174 -0.07427581 0.007978686 0.046290535 0.006753922 0.13706367 0.05454923
0.029074311 0.0044774 -0.029513754 -0.004970315 -0.07990332 -0.03907953 0.012269722 0.027248532
0.0075474284 -0.062477868 0.01020946 -0.06852745 0.0032126973 -0.0011887829 -0.027346322 0.022559853
-0.023590494 0.054730497 0.004164929 0.0007712235 -0.11133511 -0.14936306 -0.04768179 -0.050935347
-0.008316577 -0.13311748 -0.01955096 -0.05961955 0.0037380059 -0.09878539 0.013575209 0.015604599
-0.006086258 0.02147821 -0.050712846 0.08702693 -0.02531012 -0.011857734 -0.019602844 -0.010943947
-0.0067870375 -0.049657125 -0.09258808 -0.046564285 0.013220039 0.009796528 0.0034405827 0.0208665
00000000: 9361 12bd 9a1e 68be 5a8c 4f3d 0068 efbd
00000010: 0fd6 1a3d 297e 1eb7 1e40 73bd 90b0 783c
00000020: 86c1 0abd b4de 27be 494a 813c c5b0 23be
00000030: a68e 6cbc acbf fabb 0ed7 c7bc 7d29 96bd
00000040: e4fd bdbb c890 65bd e776 a63b d41f dd3c
00000050: 8e1b 1ebd 1ba9 a8bb c02d 48bd ca21 66b8
00000060: df0a ffbb 25f5 cebb d186 ae3c 9dba bbbc
00000070: 267b 74bd b1c4 a6bd fdd0 47be 4ede cc3d
00000080: 4be1 7dbc 8d95 41bd f9ff 6c3d d763 3dbe
00000090: c3f5 353b 7957 773b ffbb 7ebc addb bd3b
000000a0: d357 213d aea0 dcbc 9b9a e3bd 0297 3b3b
000000b0: 38b4 46bd 84b7 02bc 99c7 0d3c 85c8 f93b
000000c0: 8195 d7bc 38d9 abba c1c2 23bc 813d 353a
000000d0: 2de8 ef3a b185 943d b074 8dbe c2d9 77bb
000000e0: 74c2 55be 7f8c c3bd dc1d 493b a941 e5bb
000000f0: 3ca7 10bd 57ae 3e3b bc93 903b 22d2 45bd
00000100: cef3 e1bb 8e74 17bd 5684 aabd b418 aabd
00000110: 2625 ecbc f0ef a6bd 5e6c 99bb 690d fbbc
00000120: a3b7 9cbc 9f55 03bd b491 92bc 0d14 c13c
00000130: a863 c63c 0a69 e83a 0f1b cabc 73e0 41bc
00000140: f0a4 6d3b f255 0c3d 7416 c2bc 1c53 59be
00000150: 4f80 813b 46fb 23bc 7d96 8d3c 5254 cc3b
00000160: ff09 2ebc d62d e43c 9c2e b43c 42c5 2b3c
00000170: 6d7d 79bc 89a7 233b fff7 0ebd d731 243d
00000180: 7398 a43c 3327 e5bb 79f8 f63b fc9c 13be
00000190: 6c3e 883c a387 5cbc 9252 5f3e 3676 91bc
000001a0: 4bf2 06bd 4d03 10bb 8806 7fbd a87d 163b
000001b0: 00c1 babd 4e51 e4bd d85f 2dbd 90e5 1bbc
000001c0: 8310 f23c 988a b7bd f4cd b0bc 5c61 b83c
000001d0: 4b53 973b 857c 6f3c 2325 ebbb 23ba e53c
000001e0: f607 b0bc ec2e 9a3b 0721 8bbb d022 b0bb
000001f0: dbaa 383c af61 82bc 8597 ba3c b36b c63a
00000200: 244e 6fbc 7dae ecbb 5bbe 94bc 151b 94bc
00000210: 7d16 44be 85bc a2bd a904 d93b ff8a 24bd
00000220: 0d3d a53d 46d5 d2bc b77a 44be b4a3 0e3c
00000230: 6644 243d 5cc3 afbe e8ac 8abc f8cb b93d
00000240: e522 b5bd 028f b73b 59c1 cbbb 4062 b2bb
00000250: bc8a 93bc 0a65 12bd d436 623c 3487 48bc
00000260: 2f02 75bd 97db 10bc 4df7 1b3d 5886 703b
00000270: 83e1 1abd 4630 a7bd 6da3 42bd 53ff 5e3d
00000280: 1874 03bd dc14 d2bc efd2 a33b 8856 063b
00000290: 9bcd 1ebe 1366 8a3d 3fd9 1dbd 8324 933c
000002a0: 3e63 b53c 6f49 90bc 017a 63bc 4e0c c1bc
000002b0: fa54 ac3b b3c6 55bb 9f9f c5bb 4b28 9dbb
000002c0: 627d 083d 61b2 063c dbfc c83a fcde 7ebc
000002d0: de32 a2bb 2a7a 29bc 3d2c 09be d91e 66bd
000002e0: f638 f3bb dd61 283d e4bc a1bc 6563 09bc
000002f0: 946f f3bc fe02 88bd 3b60 5d3c 7167 a93b
00000300: 7fac 213c c46e 8fbd 0265 ae3b 7023 d2bc
00000310: 6de5 60bb 4c6c e4bd 3669 e83c 39d0 503d
00000320: fdca 633c ad1d 14ba ea1d 98bd 09b9 023c
00000330: 259b 3d3d 0150 dd3b 6b5a 0c3e 036f 5f3d
00000340: 402d ee3c 27b7 923b d4c6 f1bc 06de a2bb
00000350: 5aa4 a3bd db11 20bd f206 493c 5038 df3c
00000360: 6b50 f73b cbe8 7fbd 9445 273c 1f58 8cbd
00000370: 1e8c 523b efd0 9bba 6505 e0bc 71cf b83c
00000380: da40 c1bc 162d 603d f579 883b ef2b 4a3a
00000390: aa03 e4bd a1f2 18be fb4d 43bd 95a1 50bd
000003a0: 4142 08bc f34f 08be 5629 a0bc a133 74bd
000003b0: 55f9 743b ff4f cabd 8e6a 5e3c 6faa 7f3c
000003c0: 3c6f c7bb 12f3 af3c 46b8 4fbd 2d3b b23d
000003d0: 2b57 cfbc f146 42bc 2596 a0bc 3e4e 33bc
000003e0: cc65 debb 4565 4bbd d29e bdbd 31ba 3ebd
000003f0: dd98 583c 9e81 203c 667b 613b 39f0 aa3c
